checkpoint1_actor0.pth (torch_old, 159204 bytes, 6 tensors)

fc1.weight f4 [256, 24]
0	0x3f3b08af	0.73060125
1	0xbec8083d	-0.39068785
2	0xbe89eec0	-0.26939964
3	0xbdbfc0d6	-0.093629524
4	0x3bace7d5	0.00527666
5	0x3ec635f3	0.38713035
6	0xbe879b19	-0.26485518
7	0xbc882778	-0.016620383
8	0x3f2a3aeb	0.6649615
9	0xbea3917c	-0.31946933
10	0x3e0fd034	0.14044267
11	0xbe906995	-0.28205553
12	0x3e5e37e9	0.21701016
13	0x3e29e002	0.16589358
14	0x3e4f5ba5	0.20249803
15	0xbe6a5a2e	-0.22885963
16	0x3ed7b2f9	0.42128733
17	0xbeb8bf89	-0.3608363
18	0xbe732356	-0.23743948
19	0x3ee7c8db	0.45270428
20	0x3ea2c3f7	0.31790134
21	0xbdae3170	-0.08505523
22	0xbe3029fa	-0.17203513
23	0x3ed0a8cd	0.40753785
24	0x3f0f7c41	0.5604897
25	0x3ee77455	0.45205942
26	0xbe7e8f5f	-0.24859379
27	0xbf01869c	-0.5059602
28	0x3ebd9e6f	0.37034938
29	0xbf441619	-0.7659622
30	0xbe75d6cf	-0.24007724
31	0xbf194581	-0.5987168
32	0x3e270a13	0.16312437
33	0xbca0dca1	-0.019636454
34	0x3df26a07	0.11836629
35	0xbdbd045f	-0.09229349
36	0xbcc1f93c	-0.023678415
37	0xbc36947d	-0.011143801
38	0x3d914c72	0.07094659
39	0xbda8697e	-0.08223246
40	0x3ea4ebf4	0.32211268
41	0x3d8818bf	0.06645345
42	0xbd3206df	-0.043463584
43	0x3f05b7e3	0.52233714
44	0xbd9ad1e2	-0.07559563
45	0x3e0a6ae1	0.13517334
46	0x3ae568ee	0.0017502585
47	0x3ef7d19b	0.48402104
48	0x3e085a40	0.13315678
49	0xbe4f2a89	-0.2023107
50	0xbc91fa27	-0.017819477
51	0x3ec598bf	0.385931
52	0xbbd40e63	-0.0064714416
53	0x3e348ce3	0.17631869
54	0xbdcdfe48	-0.10058266
55	0x3ea9f848	0.33197236
56	0x3e769493	0.24080114
57	0xbe3d2ede	-0.1847491
58	0x3cfa47d2	0.030551825
59	0xbdb0dcc7	-0.0863586
60	0x3da9c657	0.082897834
61	0x3e089359	0.13337459
62	0x3d4bb7d8	0.049735874
63	0xbd883cdc	-0.06652233
64	0x3e8fc08a	0.28076583
65	0xbe1c0566	-0.15236434
66	0xbf02ab20	-0.51042366
67	0x3dd00df6	0.10158913
68	0x3e04ccba	0.12968722
69	0x3ddb8c4e	0.1072012
70	0xbeed9710	-0.46404314
71	0x3e34f425	0.17671259
72	0x3ec10e2d	0.37706128
73	0xbeff4201	-0.49855044
74	0xbd576781	-0.052588943
75	0xbe32768f	-0.17428039
76	0xbe5fc00f	-0.21850608
77	0xbdd79b61	-0.10527683
78	0xbcebac1b	-0.02876859
79	0xbe399749	-0.18124117
80	0x3eb14d28	0.34629178
81	0xbf04d75d	-0.5189112
82	0xbbe69224	-0.0070364643
83	0x3d8c1823	0.06840541
84	0xbec334b5	-0.3812615
85	0xbf3162df	-0.6929149
86	0x3d00a9c9	0.03141192
87	0x3e0f9df4	0.14025098
88	0x3eef7066	0.4676544
89	0xbf022822	-0.5084249
90	0xbd509ce6	-0.05093088
91	0x3e07fe58	0.13280618
92	0xbec9bbc1	-0.39401057
93	0xbe8897de	-0.26678365
94	0x3d3a93c2	0.04555107
95	0x3e2642cc	0.16236418
96	0x3e6ac669	0.2292725
97	0xbe477d61	-0.19481422
98	0x3d88d95b	0.06682082
99	0xbee94d87	-0.4556696
100	0x3e0bb907	0.13644801
101	0xbf8044ea	-1.0021031
102	0xbd1f6d8e	-0.03892284
103	0xbf0724ba	-0.52790415
104	0x3e5a3eaf	0.21312974
105	0xbcd90905	-0.026493559
106	0x3d7c50ac	0.061600372
107	0x3f243466	0.64142454
108	0x3d7a9272	0.061174817
109	0xbf715da1	-0.9428349
110	0x3dab2d7b	0.08358284
111	0x3f356fbe	0.7087363
112	0x3e8d0c81	0.27548602
113	0x3e14afc3	0.14520173
114	0xbca267e1	-0.019824924
115	0x3f097e87	0.5370869
116	0xbd9222f2	-0.071355715
117	0xbf4cb538	-0.7996402
118	0x3c9a2838	0.018818006
119	0x3f1af798	0.6053405
120	0x3f316072	0.6928779
121	0x3f49ee85	0.78879577
122	0xbe2d9408	-0.16951
123	0x3da2fdf5	0.07958595
124	0xbe310578	-0.17287242
125	0xbd841aa5	-0.064503945
126	0xbdbaf862	-0.091294065
127	0x3dc852ee	0.097814426
128	0x3f62fd24	0.8866751
129	0x3f6038e5	0.87586814
130	0xbc644458	-0.01393231
131	0xbea768c5	-0.3269712
132	0xbc884de6	-0.016638707
133	0x3d2a0077	0.04150435
134	0x3d5bcc58	0.053661674
135	0xbe9a1c08	-0.3009951
136	0x3f5ecbf1	0.8702994
137	0x3f46cc27	0.7765526
138	0x3e29a1bd	0.16565605
139	0xbe461494	-0.19343787
140	0x3e8408a3	0.2578784
141	0x3ea241b9	0.31690767
142	0x3e321246	0.17389783
143	0xbe60e79e	-0.21963355
144	0x3e8fd70c	0.28093755
145	0x3e265f9c	0.1624741
146	0xbe7af22e	-0.24506447
147	0xbeda931d	-0.42690364
148	0x3ece58f0	0.4030223
149	0xbefa594e	-0.4889626
150	0xbe5ed721	-0.21761753
151	0xbeacbb5a	-0.33736688
152	0x3ea979e2	0.33100802
153	0x3dc7b695	0.09751622
154	0xbe170a8c	-0.14750117
155	0xbe70dd75	-0.23521979
156	0x3e48c62c	0.19606847
157	0xbe4aa75a	-0.19790402
158	0xbe2ccb8e	-0.16874525
159	0xbe686e70	-0.22698379
160	0x3e9cf548	0.30655885
161	0x3d81de85	0.0634127
162	0xbd676df9	-0.056501362
163	0x3bf626e4	0.0075119603
164	0x3e6c5b6c	0.2308175
165	0x3b6fb7a4	0.0036577964
166	0xbd6fd6ff	-0.058554646
167	0x3d1cc840	0.03827691
168	0x3e720bcc	0.23637313
169	0x3e8fb5ad	0.28068295
170	0xbe731d98	-0.23741758
171	0x3e672471	0.22572495
172	0xbd1cae30	-0.038252056
173	0x3e7b4ad2	0.2454026
174	0xbe56890e	-0.2095072
175	0x3e383a8f	0.17991088
176	0x3e69dbd8	0.2283777
177	0x3ea08864	0.31354058
178	0xbcbb3a27	-0.022854878
179	0x3e2a4825	0.16629083
180	0xbe2e68b5	-0.1703213
181	0x3eeef02f	0.4666762
182	0xbc1ab81a	-0.009443307
183	0x3e31f826	0.17379817
184	0x3eaa2f4c	0.3323921
185	0x3e939ad7	0.2882907
186	0x3e207be4	0.1567226
187	0x3d952f8c	0.072844595
188	0xbdfdec2e	-0.12398563
189	0x3ef3c3c1	0.47610286
190	0x3e6ede1d	0.23326917
191	0x3d5a8b78	0.053355664
192	0x3e514d2b	0.20439593
193	0x3ec0fb34	0.37691653
194	0xbd5c9637	-0.053854194
195	0xbe1930f5	-0.14960082
196	0x3eccd077	0.40002796
197	0xbf516c8c	-0.81806254
198	0xbd5288f6	-0.051400147
199	0xbe3329f0	-0.17496467
200	0x3e794a21	0.24344684
201	0x3e559453	0.20857362
202	0x3bc21833	0.005923295
203	0xbecac04b	-0.39599833
204	0x3eb8603f	0.3601093
205	0xbd93c025	-0.07214383
206	0x3cd61e1e	0.026137408
207	0xbebe153c	-0.37125576
208	0x3e9710fc	0.29505146
209	0x3dd52d67	0.104090504
210	0xbe2bbbe8	-0.167709
211	0xbed86f4e	-0.4227242
212	0x3d5d6b89	0.05405763
213	0x3ed4ec24	0.4158641
214	0xbe7b4807	-0.24539195
215	0xbefa5d88	-0.48899484
216	0x3e38028b	0.1796972
217	0x3f381fd8	0.7192359
218	0xbde53c6a	-0.11193164
219	0x3e82cf19	0.25548628
220	0xbeb3c8bb	-0.35114083
221	0xbf54d62f	-0.8313932
222	0xbdf5fa45	-0.12010626
223	0x3e8bd0ac	0.27307642
224	0x3e5c9956	0.21542868
225	0x3f2cf743	0.6756479
226	0x3c4829cb	0.0122169955
227	0xbd32f2c9	-0.04368857
228	0xbe727fb0	-0.23681521
229	0xbf25d510	-0.6477823
230	0xbd0760ea	-0.03305141
231	0xbde9723c	-0.113987416
232	0x3f0edc94	0.55805326
233	0x3f1631bd	0.58669645
234	0x3db5e793	0.0888206
235	0x3d0ab832	0.03386707
236	0xbe69cb08	-0.22831357
237	0xbf6ac779	-0.9171062
238	0x3e3e3bd4	0.1857751
239	0x3bfdd283	0.007746042
240	0x3ef821b6	0.4846322
241	0x3dac3e4b	0.08410319
242	0xbe34b8c8	-0.17648613
243	0xbe93a189	-0.2883418
244	0xbebf5f1c	-0.3737725
245	0xbdc375ef	-0.095439784
246	0xbe601db6	-0.21886334
247	0xbe6e2756	-0.23257193
248	0x3eeb574c	0.4596504
249	0x3b99a16f	0.004688434
250	0x3e040a13	0.12894468
251	0x3e23e019	0.16003455
252	0x3ea6d1bd	0.32581893
253	0x3db528c7	0.08845668
254	0x3db35d31	0.08758009
255	0x3e39dfa5	0.1815172

fc1.bias f4 [256]
0	0xbec54162	-0.38526446
1	0xbec11ee4	-0.3771888
2	0xb978ecc5	-0.00023739327
3	0x3e6840bc	0.22680944
4	0xbeebaeac	-0.46031702
5	0xbec633ed	-0.3871149
6	0xbf37c58e	-0.7178582
7	0xbebf9e29	-0.37425354
8	0xbf055968	-0.5208955
9	0xbf14f62e	-0.5818814
10	0xbe91d76e	-0.28484672
11	0xbc9dd018	-0.019264266
12	0xbec73db7	-0.38914272
13	0x3e4ff72e	0.20309135
14	0xbe875b54	-0.26436865
15	0x3d0eb81e	0.034843557
16	0x3d5f4661	0.054510478
17	0xbf07b210	-0.53006077
18	0xbe7c4c18	-0.24638402
19	0xbf17286c	-0.59046054
20	0xbe4a7b35	-0.19773562
21	0xbeb14a4c	-0.34626997
22	0xbdb2955e	-0.08719896
23	0xbf27768d	-0.6541527
24	0xbeac9d37	-0.33713695
25	0xbdc01692	-0.09379305
26	0x3e1dbfbf	0.15405177
27	0x3c884965	0.01663656
28	0xbe822def	-0.2542567
29	0xbe852188	-0.26002145
30	0xbe34ebb1	-0.17668034
31	0xbe8ff877	-0.2811925
32	0xbec79709	-0.38982418
33	0x3bf90822	0.0075998465
34	0xbe341967	-0.17587815
35	0xbe7452d9	-0.23859729
36	0xbe0b6bd4	-0.13615352
37	0x3e0dda75	0.13852866
38	0xbee753ec	-0.45181215
39	0xbe2051db	-0.15656225
40	0xbf005dd3	-0.50143164
41	0xbeae5580	-0.34049606
42	0xbd8a6442	-0.06757404
43	0xbeecf2e5	-0.46279064
44	0xbed2417a	-0.4106558
45	0xbe853566	-0.26017302
46	0xbebcb594	-0.36857283
47	0xbed1ed73	-0.41001472
48	0x3c6ee078	0.014579885
49	0xbd806f85	-0.06271271
50	0xbf152342	-0.58256924
51	0x3e138242	0.14405158
52	0xbef27c2d	-0.47360364
53	0xbef46986	-0.47736758
54	0xbe803098	-0.25037074
55	0xbec1f235	-0.37880102
56	0xbe4b7bc6	-0.19871435
57	0xbdfc0dd8	-0.12307328
58	0xbed7cbb2	-0.42147595
59	0xbcff66f4	-0.031177022
60	0xbeae2f9b	-0.34020695
61	0xbebe0f75	-0.37121168
62	0xbec8449a	-0.3911484
63	0xbeac77f6	-0.33685273
64	0xbe694625	-0.22780664
65	0xbe0767e9	-0.13223232
66	0xbe8a7a82	-0.2704659
67	0x3e85a40a	0.26101714
68	0xbee53cd4	-0.4477297
69	0xbedc96ac	-0.43083704
70	0xbe246b5a	-0.16056576
71	0xbe9b3948	-0.3031714
72	0xbf1342f9	-0.5752407
73	0xbe44f6a2	-0.19234708
74	0xbf2e95b0	-0.68197155
75	0x3d8955b2	0.06705798
76	0x3d9203a6	0.07129602
77	0x3e0668a7	0.13125859
78	0xbd3e3565	-0.04643764
79	0xbdc1d4e5	-0.094644345
80	0xbe9703ff	-0.29495236
81	0xbef8763d	-0.4852771
82	0xbe16c975	-0.14725287
83	0xbe51bea3	-0.20482878
84	0xbe272654	-0.16323215
85	0xbecbd441	-0.39810374
86	0xbec61ef9	-0.38695505
87	0x3ddf701f	0.10910057
88	0xbd6ee4ce	-0.058323674
89	0xbe72edee	-0.23723575
90	0xbdfb8f98	-0.12283248
91	0x3dc33f2e	0.09533535
92	0xbe3acb5f	-0.18241642
93	0x3ec46dfc	0.3836516
94	0xbeb06d9a	-0.3445862
95	0xbee11e79	-0.4396856
96	0xbf0e8036	-0.55664384
97	0xbe2174ee	-0.15767261
98	0xbea6402e	-0.3247084
99	0xbcbfb4a3	-0.023401564
100	0xbc51092e	-0.012758536
101	0xbeb251fe	-0.3482818
102	0xbe991f77	-0.29906818
103	0xbebd7653	-0.37004337
104	0xbe964c04	-0.2935487
105	0x3ee1a185	0.44068542
106	0x3c901ade	0.017590936
107	0xbe19993b	-0.14999859
108	0x3d8d9bf2	0.0691451
109	0xbe86b7a9	-0.26311997
110	0xbec24dab	-0.3794988
111	0xbf02b64f	-0.5105943
112	0xbf02cd71	-0.5109473
113	0xbf140438	-0.5781894
114	0xbf02b58a	-0.51058257
115	0x3d502039	0.05081198
116	0x3ea49173	0.3214222
117	0xbefafa1d	-0.49018946
118	0xbe7c73ee	-0.24653599
119	0x3e1fc184	0.15601164
120	0xbe441eda	-0.19152394
121	0xbe16c484	-0.14723402
122	0xbd19f59a	-0.03758774
123	0xbe1a18c3	-0.15048508
124	0xbe9a780c	-0.30169713
125	0xbe21dbf8	-0.15806568
126	0x3c8740b5	0.016510347
127	0xbe3b0811	-0.18264796
128	0x3e2f76df	0.1713519
129	0xbec8c7a0	-0.39214802
130	0xbe4e0531	-0.20119168
131	0x3cb2c4e2	0.021822397
132	0xbeffb7f5	-0.49945036
133	0x3c31eb64	0.010859344
134	0x3e055b44	0.13023096
135	0xbedc4ecf	-0.43028876
136	0xbec2d881	-0.38055804
137	0x3d79de2e	0.061002903
138	0xbe5c3cfd	-0.2150764
139	0xbe36cfd0	-0.17852712
140	0xbe22a20b	-0.15882127
141	0xbd7d096d	-0.061776567
142	0xbdb100a4	-0.086427
143	0xbdb237da	-0.08702059
144	0xbdf8417d	-0.12121866
145	0xbd576cd2	-0.052594014
146	0xbf03af7f	-0.5143966
147	0xbea9bbc9	-0.3315108
148	0xbe88887b	-0.26666626
149	0x3de38111	0.11108602
150	0xbe173bbc	-0.1476888
151	0xbe366b75	-0.17814429
152	0xbe38339c	-0.17988437
153	0xbf023e4e	-0.5087632
154	0xbdf23b15	-0.11827675
155	0xbd03992a	-0.03212849
156	0x3d420699	0.047369573
157	0xbe470ed7	-0.19439255
158	0x3d8878cf	0.066636674
159	0xbe66f96b	-0.22556083
160	0xbef33dc0	-0.4750805
161	0xbe5f08a1	-0.21780635
162	0xbe302bb2	-0.17204168
163	0xbe9c0fdf	-0.3048086
164	0xbf1db093	-0.61597556
165	0xbe77ea7e	-0.24210545
166	0xbcb99162	-0.022652332
167	0xbcab89c4	-0.020939715
168	0x3db5638c	0.08856878
169	0xbe001d12	-0.1251109
170	0xbd08db39	-0.033412192
171	0xbeeaf74d	-0.458918
172	0xbf065d49	-0.5248609
173	0xbe9ef389	-0.31045178
174	0xbf16e16c	-0.58937716
175	0xbf158b61	-0.584158
176	0xbef20985	-0.47272888
177	0xbe90a5d8	-0.2825153
178	0xbf007d9a	-0.5019165
179	0xbeb50e18	-0.35362315
180	0xbe8e2f4b	-0.27770457
181	0x3c8a20bd	0.016861314
182	0x3eaa7466	0.3329193
183	0xbe080a41	-0.13285162
184	0xbdc93676	-0.09824841
185	0xbeccdb64	-0.40011132
186	0x3dbb7668	0.091534436
187	0xbea5e5ad	-0.3240179
188	0xbebba32a	-0.36647922
189	0xbea7ecbd	-0.32797804
190	0xbe58d590	-0.21175218
191	0xbe808ef0	-0.25109053
192	0xbeb5493a	-0.3540743
193	0xbed7d585	-0.4215509
194	0xbe062f32	-0.13103941
195	0xbdbf4501	-0.09339333
196	0xbec0077a	-0.37505704
197	0xbd2f435e	-0.042788856
198	0xbde395d4	-0.11112562
199	0x3cff4d83	0.03116489
200	0xbe876e7d	-0.26451483
201	0x3d149780	0.036277294
202	0xbef0b5a7	-0.4701359
203	0xbd99db3c	-0.07512519
204	0x3eeb4315	0.45949617
205	0xbcda9d64	-0.026686378
206	0xbea32374	-0.31862986
207	0xbe3351ee	-0.17511722
208	0xbe86c4b5	-0.2632195
209	0xbe64d9b8	-0.22348678
210	0xbc224328	-0.009903707
211	0xbef75862	-0.48309618
212	0xbf536015	-0.82568485
213	0x3df9d23c	0.12198302
214	0xbec25aa5	-0.3795978
215	0xbf0f0189	-0.5586172
216	0xbd10d9ea	-0.03536407
217	0x3e40cedd	0.18828912
218	0x3d8abbb6	0.06774084
219	0xbeeaf338	-0.45888686
220	0xbed74cb2	-0.420507
221	0xbf0aeaef	-0.5426473
222	0x3f0a016b	0.53908414
223	0xbe9089e0	-0.2823019
224	0xbe8809b8	-0.26569915
225	0xbf095d28	-0.5365777
226	0xbe78a95d	-0.24283357
227	0xbddceb4e	-0.10787068
228	0xbef4b911	-0.47797444
229	0xbe79b178	-0.24384105
230	0x3e8729b8	0.26399016
231	0xbd8d02a2	-0.06885268
232	0xbf0d454a	-0.5518385
233	0xbe88cd42	-0.267191
234	0xbe97beb3	-0.2963768
235	0xbe8e4d60	-0.27793407
236	0x3dcd9359	0.1003787
237	0xbdcfa03d	-0.10137985
238	0xbf0cf909	-0.550675
239	0x3e9d3353	0.3070322
240	0xbe8fba3f	-0.28071782
241	0xbf11c731	-0.56944567
242	0x3da02c70	0.07820976
243	0xbea1682e	-0.31524795
244	0xbea7862d	-0.32719555
245	0xbe46bc8d	-0.19407864
246	0xbeb578b4	-0.35443652
247	0xbe88e98f	-0.2674069
248	0xbeb551a7	-0.35413858
249	0xbe80f338	-0.2518556
250	0xbe80f392	-0.2518583
251	0xbe8009f6	-0.250076
252	0x3c2a3f40	0.010391057
253	0x3e77633a	0.24158946
254	0xbf17aefe	-0.5925139
255	0xbacd3120	-0.0015654899

fc2.weight f4 [128, 256]
0	0xbd7e901c	-0.062149152
1	0xbd702060	-0.058624625
2	0xbd5124e1	-0.05106056
3	0xbbadec8c	-0.0053077396
4	0x3ca1818b	0.019715091
5	0x3aa36c09	0.001246811
6	0x3b0a59bf	0.0021110622
7	0x3cdf04f0	0.027224034
8	0xbc9034bb	-0.017603269
9	0x3d92e821	0.07173181
10	0xbe057231	-0.13031842
11	0xbd6fe8a2	-0.058571465
12	0xbd99b0d6	-0.07504432
13	0xbdb586a6	-0.08863573
14	0xbca9fbee	-0.020750012
15	0x3c35c4e4	0.011094306
16	0xbd76ea60	-0.06028211
17	0xbd6f31fc	-0.05839728
18	0xbd578165	-0.052613635
19	0xbd9982f0	-0.074956775
20	0xbd725b16	-0.059168898
21	0x3d51c292	0.051210947
22	0xbc38e91e	-0.011286048
23	0xbd15ae34	-0.036543086
24	0xbd272332	-0.04080505
25	0xbd8259fa	-0.06364818
26	0xbda45c2b	-0.08025392
27	0xbdd28430	-0.10279119
28	0xbdc31c50	-0.095268846
29	0xbde0c167	-0.109743886
30	0x3db66c22	0.089073434
31	0xbddefbcd	-0.10887871
32	0x3c7c0040	0.015380919
33	0xbd539a5c	-0.05166088
34	0x3ca51ed0	0.020156294
35	0x3b8fc062	0.0043869475
36	0xbb7bc562	-0.003841721
37	0xbde81626	-0.113323495
38	0x3c4c31dc	0.012463059
39	0x3d4ca103	0.04995824
40	0x3c210159	0.009826981
41	0xbb109af7	-0.0022065022
42	0xbd3a655d	-0.045506824
43	0xbdc0b61d	-0.09409735
44	0x3cc7697b	0.02434229
45	0x3c84a264	0.016190715
46	0x3d597e99	0.05309925
47	0xbc978679	-0.018496739
48	0xbd286b62	-0.041118033
49	0xbdae638d	-0.085150816
50	0xbd623ab4	-0.055231765
51	0xbd960b37	-0.07326358
52	0xbd56f862	-0.05248297
53	0xbe03b189	-0.12860693
54	0xbd9fede2	-0.078090444
55	0xbdef3f7a	-0.11682029
56	0x3cb3933c	0.021920793
57	0xbd05d75c	-0.032676086
58	0xbe228a27	-0.15873013
59	0xbd5a768c	-0.05333571
60	0xbdca0a7f	-0.09865283
61	0x3d4145d9	0.047185753
62	0x3ce942db	0.028474262
63	0xbc0b32fd	-0.008496043
64	0xbdb68046	-0.08911185
65	0xbb5e5880	-0.0033927262
66	0xbd4fdb25	-0.050746102
67	0xbd2661fc	-0.04062079
68	0xbdad2569	-0.08454401
69	0x3d0e0201	0.03466988
70	0xbc29aff1	-0.010356889
71	0xbd8ecc5c	-0.06972572
72	0xbd67a444	-0.05655314
73	0x3d42b325	0.047534127
74	0xb9c9402c	-0.0003838552
75	0xbcb5dbb3	-0.022199487
76	0xbd9f07ea	-0.07765181
77	0xbda82863	-0.08210828
78	0xbd23539a	-0.03987465
79	0xbd83b727	-0.06431418
80	0xbd1fdb96	-0.039027773
81	0xbe04cf73	-0.1296976
82	0xbd01951c	-0.031636342
83	0x3d264877	0.04059645
84	0x3d9ea88b	0.07746991
85	0xbe0eb39c	-0.13935703
86	0xbdc9a017	-0.09844988
87	0xbd686194	-0.056733683
88	0xbd354577	-0.0442557
89	0xbb347025	-0.0027532664
90	0x3d8513af	0.06497895
91	0xbe289b9b	-0.16465609
92	0xbdc109ab	-0.09425672
93	0x3c78fe5d	0.015197364
94	0xbdd74cac	-0.10512671
95	0x3c4ce90d	0.0125067355
96	0x3d33615f	0.043794032
97	0xbe00cf12	-0.12578991
98	0x3c45e93b	0.012079532
99	0xbdf05273	-0.11734476
100	0xbca8f3a8	-0.020623997
101	0x3d9dc75b	0.0770404
102	0x3cdc8db7	0.026923044
103	0x3cf22a23	0.029561108
104	0x3d847401	0.064674385
105	0xbd3b2853	-0.045692753
106	0xbca4cf46	-0.020118367
107	0x3d77ff1b	0.060546022
108	0xbdc40a01	-0.095722206
109	0x3cb33db8	0.021880016
110	0xbda67d76	-0.081293985
111	0xbdb6b2df	-0.08920836
112	0xbdf45251	-0.11929763
113	0x3d232505	0.039830226
114	0xbd6a1e10	-0.057157576
115	0x3c578d0a	0.013156185
116	0xbc126640	-0.008935511
117	0x3d63ba61	0.055597667
118	0xbd8bef20	-0.06832719
119	0x3d3c2d5e	0.045941703
120	0x3b91ca5f	0.0044491733
121	0xbdd13a0d	-0.102161504
122	0xbe1494fd	-0.1450996
123	0xbd24d25b	-0.040239673
124	0xbd45e6f6	-0.048315965
125	0x3d18b646	0.037283204
126	0x3c232523	0.009957585
127	0xbd020bc4	-0.0317495
128	0xbd4253d6	-0.047443233
129	0x3da2e75d	0.07954285
130	0xbdd64a85	-0.10463432
131	0x3d874d3c	0.06606528
132	0xbc8d0711	-0.017215284
133	0x3d968939	0.07350392
134	0xbaf89378	-0.0018964848
135	0xbdbe5b61	-0.09294773
136	0xbc0525cf	-0.00812669
137	0x3d6a2633	0.057165336
138	0xbde7515b	-0.11294814
139	0xbd878172	-0.066164866
140	0xbd3211f7	-0.043474164
141	0x3c1ef2c0	0.009701431
142	0x3d3fbd9d	0.04681169
143	0xbe1e88f4	-0.15481931
144	0xbb041e4b	-0.0020159658
145	0xbcde606d	-0.027145589
146	0xbc4f869c	-0.012666371
147	0xbd29443f	-0.04132485
148	0x3ca9a889	0.020710247
149	0xbd23acd3	-0.03995974
150	0x3d6043c6	0.054752134
151	0xbdf8a48d	-0.121407606
152	0xbddec6f6	-0.108777925
153	0xbda798b6	-0.08183424
154	0xbc96643e	-0.018358346
155	0x3d0d661c	0.034521207
156	0xbd9d54f0	-0.07682216
157	0xbb005d0d	-0.0019586713
158	0xbd5665fd	-0.052343357
159	0x3c8ca9b4	0.017170765
160	0x3d10449f	0.035221692
161	0xbdefe909	-0.1171437
162	0x3d8eb333	0.06967773
163	0xbcb86e58	-0.022513554
164	0x3d2eec07	0.042705562
165	0xbe4134f0	-0.1886785
166	0xbdd568b6	-0.10420363
167	0xbcc81240	-0.024422765
168	0x3cafee57	0.021475954
169	0x3c90478d	0.017612243
170	0xbd8a45bd	-0.06751583
171	0xbd791994	-0.06081541
172	0xbdbf43dc	-0.09339115
173	0xbe02b877	-0.1276568
174	0xbd420ec8	-0.047377378
175	0xbdf07fd3	-0.117431305
176	0x3c24d14e	0.010059668
177	0x3cfc6142	0.030808095
178	0xbcb3920a	-0.021920223
179	0x3d25f654	0.04051812
180	0x3b234f7f	0.002491921
181	0xbd8d0b91	-0.06886972
182	0x3d21b7ba	0.039481856
183	0xbc978fde	-0.018501218
184	0x3c1e792c	0.009672444
185	0xbc7004fa	-0.014649624
186	0xbd451324	-0.048113957
187	0xbd46e260	-0.04855573
188	0x3c4b92e5	0.012425159
189	0x3d8bfee8	0.06835729
190	0xbdc83ec2	-0.09777595
191	0xbccf0c1e	-0.025274333
192	0xbd924012	-0.07141127
193	0xbd83050a	-0.063974455
194	0xbdb2fcab	-0.08739599
195	0x3cff4eba	0.03116547
196	0xbe0f81f4	-0.14014417
197	0xbc43495d	-0.011919347
198	0xbd92fe44	-0.071774036
199	0xbd70b1a8	-0.058763176
200	0xbc94d9d2	-0.018170271
201	0xbdab8c17	-0.083763294
202	0xbc2b0472	-0.010438072
203	0xbd18b935	-0.037286002
204	0x3d266d29	0.040631447
205	0x3cb2ff4e	0.021850254
206	0xbd9d8476	-0.076912805
207	0x3d874351	0.066046365
208	0xbc67a5f4	-0.014138687
209	0x3d8d2c5b	0.06893226
210	0xbce50d00	-0.0279603
211	0x3cf927cf	0.03041449
212	0x3c9f7f87	0.01946999
213	0x3c0de990	0.008661643
214	0x3d403441	0.046924833
215	0xbd823a97	-0.063588314
216	0x3c0489ac	0.008089464
217	0x3cd4916c	0.025948249
218	0xbdbaacc5	-0.091149844
219	0xbdcb64ab	-0.0993131
220	0xbd3a85a5	-0.04553761
221	0x3d4227c0	0.04740119
222	0xbc0a8662	-0.008454891
223	0x3d91388b	0.07090863
224	0xbd034ad7	-0.032053795
225	0xbd447618	-0.047964185
226	0xbdbe13a4	-0.0928109
227	0x3d9b5398	0.075843036
228	0xbd5b659b	-0.053563695
229	0xbdca34bc	-0.098733395
230	0xba033bfc	-0.0005006192
231	0xbd1c464a	-0.03815297
232	0xbdaa015e	-0.08301042
233	0xbcf0970b	-0.029368898
234	0xbdec9727	-0.115522675
235	0x3a924f55	0.0011162559
236	0x3d01677a	0.031592824
237	0xbd05abe8	-0.032634646
238	0x3b224188	0.0024758298
239	0xbdae1201	-0.08499528
240	0xbcc2035f	-0.023683248
241	0xbd5235c6	-0.051320814
242	0xbc3dacdc	-0.011576857
243	0xbdb29915	-0.08720604
244	0xbcbb1c82	-0.022840742
245	0x3d6e21f0	0.058137834
246	0x3d26b4be	0.040699713
247	0xbdfb9df5	-0.12285987
248	0x3bc7dc37	0.0060992497
249	0xbdd0aa4a	-0.1018873
250	0xbbb2e4d9	-0.0054594097
251	0xbe2d60d3	-0.16931467
252	0xbd841f1d	-0.06451247
253	0xbda29e8b	-0.07940396
254	0xbd81a244	-0.06329778
255	0xbdcf2d16	-0.10116021

fc2.bias f4 [128]
0	0xbc90c69b	-0.017672827
1	0x3d01756c	0.031606123
2	0xbf068abc	-0.5255544
3	0x3c9700e9	0.018433051
4	0x3ea10ca1	0.31454948
5	0x3db2bb05	0.087270774
6	0xbeacd027	-0.33752558
7	0xbee4ad3c	-0.44663417
8	0xbe41a4ff	-0.18910597
9	0xbf14cf7f	-0.58129114
10	0xbe45ccc5	-0.19316395
11	0xbdb7a84f	-0.08967649
12	0xbe3c7e87	-0.18407641
13	0xbe0dc5c3	-0.13844971
14	0xbf3a1ae4	-0.7269728
15	0x3d79fefa	0.06103418
16	0x3e040170	0.12891173
17	0xbe600e23	-0.21880393
18	0xbd245a85	-0.04012539
19	0xbeb2c2f6	-0.34914368
20	0xbe2fd521	-0.17171146
21	0xbe1c91e0	-0.15290022
22	0xbed4a4e2	-0.41532046
23	0xbe44fee4	-0.19237858
24	0x3cfb2fb3	0.030662393
25	0x3cbdf931	0.023190113
26	0xbde71e06	-0.112850234
27	0xbe88de14	-0.26731932
28	0xbe049af7	-0.1294974
29	0xbde49a74	-0.11162272
30	0xbe824e7d	-0.25450507
31	0xbc3e227a	-0.0116049
32	0xbf1adcae	-0.6049298
33	0xbed72187	-0.42017767
34	0xbe6308cf	-0.22171329
35	0x3d8cf9a2	0.06883551
36	0x3d9b5beb	0.07585891
37	0xbd60aca6	-0.05485215
38	0xbe417999	-0.18894042
39	0xbe9a151d	-0.30094233
40	0xbe723130	-0.23651576
41	0xbdcb27b1	-0.0991968
42	0xbe1c8306	-0.15284356
43	0xbddd31e3	-0.10800531
44	0x3e07c5c4	0.13259035
45	0x3ea0434d	0.31301346
46	0xbe963636	-0.29338235
47	0xbe4ab36f	-0.19795011
48	0xbe5ce05f	-0.21569966
49	0x3e2040dd	0.15649743
50	0xbf01eeef	-0.5075521
51	0x3dc71c96	0.09722249
52	0xbea37e95	-0.31932512
53	0x3e189e1f	0.14904068
54	0xbe5eb95c	-0.21750396
55	0x3e00bcbc	0.12571996
56	0x3de74186	0.112917945
57	0xbe2d8f7c	-0.16949266
58	0xbe3d7b23	-0.18504004
59	0xbe9abf1e	-0.30223936
60	0xbecd82ca	-0.40138847
61	0x3df9029d	0.121587016
62	0x3bfb3fa4	0.0076674987
63	0xbe60dd25	-0.2195936
64	0xbdec89ca	-0.11549719
65	0xbe0d6c55	-0.13810857
66	0xbef17537	-0.4715974
67	0xbd54e7f7	-0.05197903
68	0xbf0b8fe3	-0.5451643
69	0xbdd959c0	-0.106128216
70	0x3e0ebfb3	0.13940315
71	0xbf588a78	-0.84586287
72	0xbe953f76	-0.2914998
73	0xbe1d1ca1	-0.15342952
74	0xbd512938	-0.0510647
75	0xbe6db9ad	-0.23215361
76	0xbdfe79c8	-0.12425572
77	0xbe32c975	-0.17459662
78	0xbee6f772	-0.4511066
79	0xbed7fbe9	-0.4218438
80	0xbd97dfe0	-0.07415748
81	0xbd587c41	-0.052852873
82	0xbc89cb21	-0.016820492
83	0xbe9970df	-0.29968926
84	0xbe18629a	-0.14881364
85	0x3d8ab1a4	0.067721635
86	0xbd5dd6c6	-0.054159902
87	0xbdcab9e4	-0.09898737
88	0xbef577fb	-0.479431
89	0xbe06b498	-0.13154829
90	0xbe4b5cf5	-0.19859679
91	0xbd0291f8	-0.031877488
92	0xbd844a52	-0.06459488
93	0xbf0f63d0	-0.56011677
94	0xbe1e2635	-0.15444262
95	0xbeb7176a	-0.3576005
96	0xbe426bf7	-0.18986498
97	0xbe29ae83	-0.16570477
98	0xbeb3012f	-0.3496184
99	0xbdcd02f8	-0.10010332
100	0xbe555bad	-0.20835753
101	0xbcad7403	-0.021173483
102	0xbef4ebe5	-0.47836223
103	0xbea79e6f	-0.32738063
104	0xbd9ebd23	-0.07750919
105	0xbebf44e9	-0.37357262
106	0xbe80544c	-0.25064313
107	0xbda160f3	-0.0787982
108	0xbeea999b	-0.45820317
109	0xbf17fcc1	-0.59370047
110	0xbec3eb9d	-0.38265696
111	0xbae31acb	-0.001732671
112	0xbe4f1fae	-0.20226929
113	0xbe341338	-0.17585456
114	0xbd8c45db	-0.068492614
115	0xbedc0072	-0.4296909
116	0xbe903383	-0.281643
117	0xbdb5055b	-0.08838912
118	0xbbfac5fa	-0.007652995
119	0xbe351b0e	-0.17686102
120	0xbe82b8c8	-0.25531602
121	0xbefea31f	-0.49733827
122	0xbe4f9ae8	-0.20273936
123	0xbe17065c	-0.1474852
124	0x3cdf9bdd	0.027296001
125	0xbddf209b	-0.10894891
126	0x3ea7f9fc	0.3280791
127	0xbeff2b08	-0.49837518

fc3.weight f4 [2, 128]
0	0xbb7e9faa	-0.0038852491
1	0x3dc4a1a5	0.09601144
2	0xbe369438	-0.17829978
3	0xbd4e0a13	-0.050302576
4	0xbae2f172	-0.0017314388
5	0xbfc21c14	-1.5164819
6	0xbe0187a4	-0.12649399
7	0x3ca4a5ce	0.020098593
8	0xbd12906b	-0.03578226
9	0xbeb0fb27	-0.34566614
10	0xbd8f8d5f	-0.07009386
11	0x3db2d52a	0.08732064
12	0xbe3d9720	-0.18514681
13	0x3d62be1f	0.055357095
14	0xbebbe329	-0.36696747
15	0x3e14ff86	0.145506
16	0x3cd200c4	0.02563513
17	0xbea8b24a	-0.32948524
18	0x3dc14c6e	0.09438406
19	0x3e1ca886	0.15298662
20	0x3d44931d	0.04799186
21	0xbe21157e	-0.15730855
22	0xbed39749	-0.4132636
23	0x3e063f7b	0.13110153
24	0xbea25571	-0.31705812
25	0xbea29d54	-0.31760657
26	0x3d660525	0.05615725
27	0xbe581d4d	-0.21104927
28	0xbd613bb1	-0.054988567
29	0xbc2d4a46	-0.01057679
30	0x3e8b82dc	0.27248275
31	0xbe9d2319	-0.3069084
32	0xbe84dd1e	-0.2594995
33	0xbcc716e8	-0.024302915
34	0x3ee63881	0.44964984
35	0x3e9303fd	0.2871398
36	0x3d5f6f1c	0.05454932
37	0xbe50ba2c	-0.20383519
38	0x3dcd6820	0.10029626
39	0x3d5fb65e	0.05461728
40	0x3e9ffaef	0.31246135
41	0xbb6ad87a	-0.0035834596
42	0x3e80f140	0.2518406
43	0xbeb3cf87	-0.35119268
44	0x3c7d7412	0.015469568
45	0xbd275d4d	-0.040860463
46	0x3f0a37f8	0.5399165
47	0x3b12f2ae	0.002242248
48	0x3caa1f91	0.020767005
49	0x3e18036a	0.14845052
50	0x3e47db3f	0.1951723
51	0x3e38ef0f	0.18059944
52	0x3e2d1e72	0.16906145
53	0x3dc62560	0.096750975
54	0x3e10f672	0.14156511
55	0x3d0efbad	0.034907985
56	0x3e6aa22b	0.22913425
57	0xb9c49d19	-0.0003750108
58	0xbdb359a0	-0.08757329
59	0x3e303266	0.17206725
60	0x3d144008	0.036193877
61	0xbe18238e	-0.14857313
62	0x3e37e294	0.17957526
63	0x3f1b2069	0.6059633
64	0xbba27f34	-0.0049590115
65	0xbc5a76ce	-0.013333989
66	0xbe400e4a	-0.18755451
67	0x3e0f610d	0.14001866
68	0x3e095250	0.13410306
69	0x3d50a93c	0.050942644
70	0x3e2db6c1	0.16964246
71	0xbe6e2eb6	-0.23260006
72	0xbee8d42f	-0.45474383
73	0xbf16f5bd	-0.58968717
74	0xbccce54a	-0.025011677
75	0x3d620293	0.055178236
76	0xbdca7e96	-0.098874256
77	0xbd22580b	-0.039634746
78	0x3e434f65	0.19073255
79	0x3e0d8934	0.1382187
80	0xba894ca9	-0.0010475117
81	0x3da46365	0.080267705
82	0xbdb6eab9	-0.089314885
83	0x3e01ac11	0.12663294
84	0xbc7dfade	-0.015501706
85	0xbc0f08fc	-0.008730169
86	0x3d52fe2c	0.05151193
87	0x3c2d52ee	0.010578854
88	0xbcd0a5f3	-0.025469756
89	0xbd5a2004	-0.05325319
90	0xbd2c146b	-0.04201166
91	0x3d820829	0.06349213
92	0xbb7c9465	-0.0038540598
93	0xbd671a77	-0.056421723
94	0xbe8746a7	-0.2642109
95	0x3dda5ac5	0.10661844
96	0x3e5c0712	0.21487072
97	0xbe04ee5a	-0.12981549
98	0x3f30ace1	0.6901379
99	0xbb01627b	-0.0019742537
100	0x3f3d0ce2	0.7384778
101	0x3d81802b	0.06323274
102	0x3e3a6646	0.18203077
103	0x3de7a5c9	0.11310918
104	0x3e46a17e	0.19397542
105	0x3beb3dab	0.0071789823
106	0x3d0ad2cc	0.033892438
107	0xbb803cce	-0.0039134985
108	0xbde07484	-0.109597236
109	0xbd3a7559	-0.045522068
110	0xbbb3510f	-0.0054723094
111	0x3d8e10c1	0.06936789
112	0xbea14d24	-0.31504166
113	0x3f3b37df	0.7313213
114	0x3d928dcf	0.07155954
115	0xbeb24821	-0.34820655
116	0xbdf7d1d5	-0.12100569
117	0x3bdbf00e	0.0067119664
118	0xbdfcdd2b	-0.12346872
119	0xbcd6ad57	-0.026205702
120	0xbd9f5e63	-0.07781675
121	0xbf598747	-0.8497204
122	0xbf860562	-1.0470393
123	0xbe905812	-0.28192192
124	0x3db4066a	0.08790286
125	0x3db8fd3f	0.09032678
126	0xbcff26ad	-0.031146372
127	0xbe12ed80	-0.14348412
128	0x3c853421	0.016260209
129	0xbe30475a	-0.17214718
130	0xbeaa6d07	-0.33286306
131	0xbf6dd468	-0.9290223
132	0xbe42a2c6	-0.19007406
133	0xbde10aed	-0.10988412
134	0xbc93cb1b	-0.018041184
135	0xbf1d986a	-0.6156069
136	0x3e59b55e	0.21260592
137	0x3c0be6d3	0.0085389195
138	0x3f83e415	1.030398
139	0x3e0d135b	0.13776915
140	0xbc8dfe35	-0.01733313
141	0xc01a21d8	-2.4083157
142	0x3e73d786	0.23812684
143	0x3e3bcd64	0.18340069
144	0x3e10a4c6	0.14125356
145	0xbde72dfa	-0.11288066
146	0xbc691705	-0.01422668
147	0xbd0b7562	-0.03404749
148	0x3d953c68	0.07286912
149	0xbe18dd18	-0.1492809
150	0x3e288361	0.16456367
151	0xbd5fc9a5	-0.054635663
152	0x3e484fa6	0.19561633
153	0x3d28b6a4	0.041189805
154	0xbed544c5	-0.4165403
155	0xbd93dc12	-0.072197095
156	0x3e0b4989	0.1360227
157	0xbc953156	-0.018212002
158	0x3ea07c7e	0.3134498
159	0x3cf9dd33	0.030500984
160	0xbd58f391	-0.052966658
161	0xbde362ab	-0.11102804
162	0x3dbe2919	0.092851825
163	0x3ce60447	0.028078211
164	0xbeb31785	-0.3497888
165	0xbdc2ea41	-0.09517337
166	0x3ecb1531	0.39664605
167	0xbe297633	-0.16548996
168	0x3e01e936	0.12686619
169	0xbff064d9	-1.8780776
170	0xbe7b8863	-0.24563746
171	0x3cf932cc	0.03041973
172	0x3e834f4c	0.25646436
173	0xbe255200	-0.16144562
174	0xbc1a4f90	-0.009418383
175	0xc038eabf	-2.8893278
176	0xbf8ec11f	-1.1152686
177	0xbd22f2fe	-0.039782517
178	0xbef94561	-0.48685744
179	0x3c0909aa	0.0083641205
180	0x3e902603	0.28154
181	0x3e32180d	0.17391987
182	0x3ceb7ff2	0.028747533
183	0xbeae6d34	-0.3406769
184	0x3d13193d	0.03591274
185	0xc02804c3	-2.6252906
186	0xbdfa857c	-0.122324914
187	0xbce7487b	-0.028232804
188	0xbeb63403	-0.35586557
189	0x3e2e0e70	0.16997695
190	0x3e7015f0	0.23445868
191	0x3dedb7f7	0.11607354
192	0x3bf90bee	0.007600299
193	0x3e43f100	0.19134903
194	0xbdcc12c1	-0.099645145
195	0x3d10401f	0.0352174
196	0x3f35aca7	0.7096657
197	0x3e3998c3	0.1812468
198	0x3d7a1050	0.061050713
199	0xbd9d91eb	-0.07693847
200	0x3d679bea	0.056545176
201	0x3e5b7bba	0.21433917
202	0xbc17264b	-0.009225438
203	0x3e929d1e	0.28635496
204	0x3d85f1ce	0.06540261
205	0x3e1e6638	0.15468681
206	0xbe275c0b	-0.16343705
207	0xbf76b162	-0.96364415
208	0xbca5c1c8	-0.020234004
209	0xbf01cb56	-0.5070089
210	0xbd27a5fe	-0.040929787
211	0xbdf7da58	-0.12102193
212	0x3e436e8c	0.19085139
213	0xbed51b27	-0.41622278
214	0x3e003038	0.12518394
215	0xbd1d582f	-0.038414177
216	0xbec8584e	-0.3912987
217	0x3b62d164	0.003460967
218	0xbeb9c67d	-0.36284247
219	0x3d221a04	0.03957559
220	0xbd1f2c1b	-0.03886042
221	0x3cfca6a7	0.030841185
222	0x3ac472af	0.0014987792
223	0xbd013779	-0.031547043
224	0x3f795774	0.9739907
225	0x3d2ee7b3	0.042701434
226	0x3e9f10a0	0.3106737
227	0xbea04f51	-0.31310514
228	0x3f46ec48	0.77704287
229	0xbf0e0aaa	-0.5548502
230	0x3ef8846d	0.48538533
231	0x3ed191bb	0.40931496
232	0x3da48ce8	0.08034688
233	0xbf8f3f7d	-1.119125
234	0x3e83aa9d	0.25716105
235	0x3c35b976	0.011091581
236	0xbcc69825	-0.02424247
237	0xbe44496b	-0.19168632
238	0xbe8d238e	-0.2756619
239	0xc006ae84	-2.1044016
240	0x3ec29ff3	0.38012657
241	0xbe227ef1	-0.15868737
242	0x3e087916	0.1332744
243	0xbe106e02	-0.14104465
244	0xbe415a9f	-0.18882225
245	0x3c9d6e5a	0.019217659
246	0xbd91ff0b	-0.07128724
247	0x3bebb38a	0.0071930336
248	0x3d3e9f8e	0.046538882
249	0xbd929c3c	-0.071587056
250	0xc04ca625	-3.1976407
251	0xbf24bbb0	-0.6434889
252	0xbf0a402c	-0.5400417
253	0x3e3dc563	0.18532328
254	0xbfd313d5	-1.6490427
255	0x3da91065	0.0825508

fc3.bias f4 [2]
0	0x3ccf8c97	0.025335593
1	0x3e2976d4	0.16549236
