checkpoint1_actor1.pth (torch_old, 159216 bytes, 6 tensors)

fc1.weight f4 [256, 24]
0	0x3eecae4c	0.46226728
1	0x3efd017f	0.49415204
2	0xbe3eb6fe	-0.18624493
3	0xbe708183	-0.23486905
4	0xbe96e495	-0.2947127
5	0xbeceefe8	-0.4041741
6	0xbe3a0fb3	-0.18170051
7	0xbe21a5ce	-0.15785906
8	0x3eab702c	0.33484018
9	0x3f08dfac	0.53466296
10	0xbe5a2104	-0.21301657
11	0x3e24d96e	0.16098568
12	0xbea4bb9a	-0.3217438
13	0xbf41c905	-0.75697356
14	0xbe1a95c6	-0.15096197
15	0x3e5b533a	0.21418467
16	0x3e9aa576	0.30204362
17	0x3ed52f5b	0.41637692
18	0xbe1c5466	-0.1526657
19	0xbd43f568	-0.04784146
20	0xbf052efa	-0.52024806
21	0xbf7d1427	-0.98858875
22	0xbdb2b661	-0.08726192
23	0xbdbe7bbf	-0.093009464
24	0x3f0b9624	0.5452597
25	0x3f38d136	0.7219423
26	0x3de068ff	0.109575264
27	0x3e05d8c6	0.13070974
28	0xbdc071d7	-0.09396713
29	0xbe66c9a9	-0.22537865
30	0x3df1da72	0.11809243
31	0x3d1b721f	0.03795063
32	0x3eb055c6	0.3444044
33	0x3f04b020	0.51831245
34	0xbe1c251d	-0.15248533
35	0x3ef1f8c9	0.4726012
36	0x3e30a6c5	0.17251118
37	0x3e22dfca	0.15905681
38	0xbe4cb3fd	-0.19990535
39	0x3ef71fa6	0.48266333
40	0x3f01a9d6	0.50649774
41	0x3f0ca522	0.5493947
42	0x3d954bcf	0.0728985
43	0xbd47e087	-0.04879811
44	0x3e11582c	0.14193791
45	0x3e1351df	0.143867
46	0x3df1e499	0.1181118
47	0xbdb26906	-0.08711438
48	0x3de00db2	0.10940112
49	0x3ef4f489	0.47842816
50	0xbe0548f6	-0.13016114
51	0x3db63df3	0.088985346
52	0xbd4aeb48	-0.049540788
53	0x3d973fb8	0.073852
54	0xbe5a0903	-0.212925
55	0x3d0f78dd	0.035027374
56	0x3e646da5	0.22307451
57	0x3ee05467	0.43814394
58	0x3dc058d4	0.093919426
59	0xbe7bd2fd	-0.24592204
60	0x3e95bee6	0.29247206
61	0xbd18aa71	-0.03727192
62	0x3de7a2cc	0.11310348
63	0xbe678312	-0.22608593
64	0x3e2059a8	0.15659201
65	0x3eb19c16	0.34689397
66	0xbe58d13e	-0.2117357
67	0x3dc57266	0.096409604
68	0x3f388286	0.7207416
69	0xbe21aa3d	-0.15787597
70	0xbe2952dc	-0.16535515
71	0x3e2fa690	0.17153382
72	0x3d7ddfd5	0.06198104
73	0x3e226ce7	0.15861855
74	0x3e55b0ac	0.20868176
75	0xbe94bbcb	-0.29049525
76	0x3e7d34eb	0.24727218
77	0xbe11bf8e	-0.14233229
78	0x3e6e14e0	0.2325015
79	0xbe984c17	-0.29745552
80	0x3e082daf	0.13298677
81	0x3e396d60	0.1810813
82	0xbdfa0102	-0.122072235
83	0xbdf0bdc2	-0.117549434
84	0x3d4cbda3	0.04998554
85	0xbe313f11	-0.17309214
86	0xbdab42ec	-0.08362374
87	0xbd3b353e	-0.045705073
88	0x3e599bb9	0.2125081
89	0x3e45b3bc	0.19306844
90	0xbe7295ba	-0.23689929
91	0xbeaab12e	-0.33338302
92	0xbe0d8b3e	-0.13822648
93	0xbd971409	-0.07376868
94	0xbe0fc9a6	-0.14041767
95	0xbe9b8f2a	-0.30382663
96	0x3ea297d5	0.31756464
97	0x3f0b360d	0.5437935
98	0x3b767f1d	0.0037612387
99	0x3e750e15	0.23931153
100	0x3e88b7d7	0.2670276
101	0xbf8d802b	-1.1054739
102	0xbdd0dbf9	-0.101982065
103	0x3e2b161b	0.16707651
104	0x3de65d8a	0.1124831
105	0x3edbaabe	0.42903703
106	0x3d4c2aaf	0.049845394
107	0x3d74fb2e	0.059809856
108	0x3f07a6ae	0.5298871
109	0xbe3b3ff4	-0.18286115
110	0x3d931b0c	0.07182893
111	0x3e022bb6	0.12711987
112	0x3e671ce6	0.22569618
113	0x3f11170a	0.5667578
114	0xbe03e8bf	-0.12881754
115	0x3ee26326	0.4421627
116	0x3edf85eb	0.4365686
117	0xbe150103	-0.14551167
118	0xbdb8aded	-0.09017549
119	0x3f02aa87	0.51041454
120	0x3ed7d60a	0.42155486
121	0x3f0613b1	0.52373797
122	0xbd1dd499	-0.038532827
123	0xbebe32c9	-0.3714812
124	0x3e28611f	0.16443299
125	0xbe84b685	-0.259205
126	0x3d2287e2	0.03968037
127	0xbeb4dd86	-0.3532526
128	0x3e6cc810	0.23123193
129	0x3eba6ef2	0.3641277
130	0xbeba6889	-0.3640788
131	0xbe934d21	-0.28769782
132	0xbcde0933	-0.027103996
133	0xbcabe10a	-0.02098133
134	0xbe97ccb6	-0.2964837
135	0xbe8600ae	-0.26172394
136	0x3ec5ba70	0.38618803
137	0x3e45d3c2	0.1931906
138	0x3e55c59a	0.2087616
139	0xbe861261	-0.26185897
140	0xbc23ffb0	-0.010009691
141	0x3dd858ba	0.10563798
142	0x3e5e361b	0.21700327
143	0xbe937bd9	-0.28805426
144	0x3d473ce9	0.048642073
145	0x3e4e8021	0.20166065
146	0xbde8a3d9	-0.113593765
147	0xbd07d92c	-0.033166096
148	0xbd9ae563	-0.07563283
149	0xbd22e16f	-0.03976577
150	0xbdb06de1	-0.08614708
151	0x3d66e6ac	0.05637233
152	0x3e00124f	0.12506984
153	0x3e399417	0.18122898
154	0x3ddf1c74	0.10894099
155	0x3e37bf49	0.17944063
156	0xbc9c4c3a	-0.019079316
157	0xbeba785b	-0.3641995
158	0x3db39a74	0.08769694
159	0x3e402e3d	0.18767639
160	0x3d174fe6	0.03694143
161	0x3e50d14c	0.2039234
162	0x3ca68b83	0.020330196
163	0x3f321dd7	0.6957678
164	0x3e03f6f4	0.12887174
165	0xbfed83f2	-1.8555892
166	0x3c95b993	0.018276965
167	0x3f39fe0a	0.7265326
168	0x3e858c72	0.26083714
169	0x3d8ff3c6	0.07028918
170	0xbe59f96f	-0.21286558
171	0x3f0a57d4	0.54040265
172	0xbe857ac8	-0.26070237
173	0x3dd1d10b	0.1024495
174	0xbe3d64a9	-0.1849543
175	0x3efd3aef	0.49459025
176	0x3e992c30	0.29916525
177	0x3dfaeaaf	0.122517936
178	0x3d070773	0.03296609
179	0xbd833c1b	-0.064079486
180	0xbec4e856	-0.38458508
181	0xbe586831	-0.21133496
182	0x3d3df67f	0.046377655
183	0xbd67b815	-0.05657204
184	0x3ea7f618	0.32804942
185	0x3e089b15	0.13340409
186	0xbd982b23	-0.07430103
187	0x3e34b8e0	0.17648649
188	0xbed48343	-0.41506395
189	0xbef7ec9d	-0.4842271
190	0x3b133025	0.0022459116
191	0x3e20c401	0.1569977
192	0x3ddf5218	0.1090433
193	0xbe7f334a	-0.24921909
194	0xbda84333	-0.08215942
195	0xbe2d25c5	-0.16908939
196	0x3d7149d7	0.05890831
197	0x3ed2ff8e	0.41210598
198	0xbda33ca3	-0.0797055
199	0xbe471ea4	-0.19445282
200	0x3e8cb000	0.27478027
201	0xbe82157b	-0.25407013
202	0xbc197eb8	-0.009368591
203	0xbeae74cc	-0.34073484
204	0x3e8ea129	0.2785733
205	0x3efff545	0.49991813
206	0x3c31b194	0.010845561
207	0xbea1ca2a	-0.3159955
208	0x3ecf3470	0.40469694
209	0xbe8113d8	-0.25210452
210	0xbdea5723	-0.11442401
211	0xbe9e176f	-0.30877253
212	0x3ea8d3c5	0.32974067
213	0x3f023162	0.508566
214	0xbe44b740	-0.1921053
215	0xbec0068f	-0.37505004
216	0x3ea5cbd7	0.3238208
217	0x3eed85e6	0.4639122
218	0xbe31f7fe	-0.17379758
219	0xbd85b216	-0.06528108
220	0x3edfa16d	0.43677846
221	0xbeda4a09	-0.4263461
222	0xbe3a56e4	-0.18197209
223	0xbd435829	-0.047691498
224	0x3e9300b8	0.28711486
225	0x3ecfdeb9	0.4059961
226	0x3c57c4ee	0.01316951
227	0xbeb8e8c9	-0.361151
228	0x3ebee786	0.37286013
229	0xbec2228d	-0.37916985
230	0xbd037b23	-0.032099854
231	0xbedce737	-0.43145153
232	0x3eab83fc	0.33499134
233	0x3ebf00ad	0.37305203
234	0xbe5df353	-0.21674852
235	0x3e9f1169	0.3106797
236	0x3eb9d815	0.3629767
237	0xbe4f6d4a	-0.20256534
238	0xbdf55788	-0.11979586
239	0x3e91b177	0.28455707
240	0x3eb79af0	0.35860395
241	0x3e28ea61	0.16495658
242	0xbdba675a	-0.09101744
243	0xbe92ccb6	-0.28671807
244	0x3daa5e60	0.08318782
245	0xbecc5dbd	-0.39915267
246	0xbe089886	-0.13339433
247	0xbe6c7dcd	-0.23094864
248	0x3ed7c937	0.42145702
249	0x3dccbf83	0.099974655
250	0x3cc9202f	0.02455148
251	0xbeb16ee3	-0.34654912
252	0x3f070201	0.5273743
253	0xbe8871d2	-0.26649338
254	0xbc89ba92	-0.016812596
255	0xbea66f09	-0.32506588

fc1.bias f4 [256]
0	0xbee662f2	-0.44997364
1	0xbe3124c8	-0.17299187
2	0xbe7dfc95	-0.24803384
3	0xbdb93aaa	-0.090443924
4	0xbef5f514	-0.48038542
5	0xbe969920	-0.294137
6	0xbeb34644	-0.35014546
7	0x3d367404	0.044544235
8	0xbea11dbd	-0.31468
9	0xbf0af1b9	-0.5427509
10	0xbf028da0	-0.5099735
11	0x3d340bd4	0.043956593
12	0xbe816887	-0.2527506
13	0xbf19260d	-0.59823686
14	0xbe89751a	-0.26847154
15	0xbdfd13c1	-0.123572834
16	0x3e22876b	0.1587197
17	0xbc03e42f	-0.008050009
18	0x3c20612d	0.0097887935
19	0xbed9c0fd	-0.4253005
20	0x3ecd0512	0.4004293
21	0xbe54b9de	-0.20774028
22	0xbf09d998	-0.53847647
23	0xbed988f7	-0.42487308
24	0xbea2df2e	-0.31810898
25	0xbf515bec	-0.81780887
26	0xbe8d9951	-0.27656034
27	0xbde27da5	-0.11059121
28	0xbe441b3f	-0.19151019
29	0xbe32642e	-0.17421028
30	0xbe6a1d5a	-0.22862759
31	0xbdd65d58	-0.10467023
32	0xbea29848	-0.31756806
33	0xbdc80060	-0.097656965
34	0xbeb1cbbd	-0.34725752
35	0xbd92615a	-0.071474746
36	0xbe80f22e	-0.25184768
37	0xbc174c03	-0.009234431
38	0xbed7f87f	-0.42181775
39	0xbeb29b75	-0.3488423
40	0xbee853c9	-0.45376423
41	0xbec300e6	-0.38086623
42	0x3e3a1f64	0.18176037
43	0xbeed420c	-0.46339452
44	0xbeb6dc06	-0.3571474
45	0xbedf107a	-0.43567258
46	0xbeddbbae	-0.4330725
47	0xbf19ac0b	-0.6002814
48	0xbbc8c480	-0.0061269403
49	0x3c1d7a3e	0.009611664
50	0xbe7c7121	-0.2465253
51	0xbda90f21	-0.08254839
52	0xbe3593e5	-0.17732199
53	0xbf26ea62	-0.6520139
54	0xbee32703	-0.443657
55	0xbeb64656	-0.35600537
56	0xbd23c41b	-0.039981943
57	0xbd94076a	-0.072279766
58	0xbeb50cb9	-0.3536127
59	0xbd3c5226	-0.04597678
60	0xbe5895f2	-0.2115095
61	0xbe49fbf7	-0.19725023
62	0xbe830e35	-0.25596777
63	0xbed6b101	-0.41931918
64	0x3eb0c563	0.34525594
65	0xbe75ffe9	-0.24023403
66	0xbeabe440	-0.33572578
67	0xbe6bc3d8	-0.23023927
68	0xbea70f69	-0.32628945
69	0xbdddf548	-0.10837799
70	0x3e9fa88c	0.3118328
71	0xbf36f612	-0.71469223
72	0xbedde363	-0.43337545
73	0xbee96ea7	-0.45592234
74	0xbe8661d5	-0.26246515
75	0xbcf83089	-0.03029658
76	0xbe506c4b	-0.2035381
77	0xbe0e3035	-0.13885577
78	0x3e7a7d3b	0.24461834
79	0xbe607b77	-0.21922098
80	0xbf2f8c3f	-0.68573374
81	0xbe9ab3b5	-0.3021523
82	0xbeaf146b	-0.34195265
83	0xbe1ba1a7	-0.15198384
84	0xbd6a873a	-0.05725787
85	0xbedd1496	-0.43179768
86	0xbf0fb3d7	-0.5613379
87	0xbe7d0bd3	-0.24711542
88	0xbe54990c	-0.20761508
89	0xbd67797b	-0.056512337
90	0xbedfcd20	-0.43711185
91	0xbe11a6dd	-0.1422381
92	0xbeead0d5	-0.4586245
93	0xbe2afff2	-0.16699198
94	0xbf0bad8d	-0.5456169
95	0xbee6b05f	-0.45056435
96	0xbe8c0718	-0.27349162
97	0xbd81340b	-0.063087545
98	0xbe1abf29	-0.15111984
99	0xbe1cd8bc	-0.15317053
100	0xbcee1b5e	-0.029065784
101	0xbe8f1987	-0.27949163
102	0xbdbb189f	-0.091355555
103	0xbe60c456	-0.21949896
104	0xbf00eb86	-0.5035938
105	0x3d1a0006	0.03759768
106	0x3f18b2f7	0.5964808
107	0x3e14c26a	0.14527288
108	0x3d8df787	0.06931978
109	0xbd8c2d35	-0.0684456
110	0xbee1a28a	-0.4406932
111	0xbd880eef	-0.06643473
112	0xbe61d99a	-0.22055665
113	0xbedffff7	-0.43749973
114	0x3d073dec	0.033018038
115	0xbebc31cc	-0.36756742
116	0x3e3a801e	0.18212935
117	0xbf3ea103	-0.74464434
118	0xbe10401a	-0.14086953
119	0xbd9db44a	-0.07700403
120	0xbf128792	-0.57238114
121	0x3daf75df	0.08567404
122	0x3cde82bd	0.02716195
123	0xbd869e17	-0.06573122
124	0xbe2a4b39	-0.16630258
125	0xbf0738a4	-0.528208
126	0xbe53625d	-0.20642991
127	0xbdece440	-0.11566973
128	0xbdcd0b88	-0.10011965
129	0xbed798a8	-0.42108655
130	0xbf14fc08	-0.5819707
131	0xbe024e52	-0.1272519
132	0xbeca5b82	-0.3952294
133	0x3c328f9e	0.010898499
134	0x3dafd642	0.08585788
135	0xbe844e98	-0.25841212
136	0x3dbacfe8	0.09121686
137	0xbd6ac447	-0.05731609
138	0xbdeb16d9	-0.11478967
139	0xbe10ef0b	-0.14153688
140	0xbe2a96b8	-0.16659057
141	0xbe8e2f2e	-0.2777037
142	0xbdff719f	-0.124728434
143	0xbdf90729	-0.12159569
144	0xbd37ee4f	-0.044905003
145	0xbeab6cb3	-0.33481368
146	0xbe1eb8cc	-0.15500182
147	0xbf0a7545	-0.5408519
148	0xbe2b2ab6	-0.16715512
149	0x3e90ae90	0.2825818
150	0xbd5165dd	-0.051122535
151	0xbdaa261c	-0.0830805
152	0xbe3f09fe	-0.18656155
153	0xbf11ca78	-0.5694957
154	0xbe00a6ca	-0.12563625
155	0xbef7eb76	-0.4842183
156	0xbdb44021	-0.08801294
157	0xbe3fce94	-0.18731147
158	0xbbc3efbf	-0.0059795077
159	0xbe881e12	-0.26585442
160	0xbeb0e137	-0.34546825
161	0xbe93a2b3	-0.28835067
162	0x3e903338	0.28164077
163	0xbeebf7cb	-0.4608749
164	0xbe1b15f4	-0.15145093
165	0xbe1932b0	-0.14960742
166	0xbe1f3e6d	-0.15551157
167	0xbe8bd26e	-0.27308983
168	0xbd2b7e15	-0.041868288
169	0xbe6a98ae	-0.22909805
170	0x3d84367b	0.06455704
171	0xbf235157	-0.6379599
172	0xbef7150a	-0.4825824
173	0xbec80908	-0.3906939
174	0xbeb83054	-0.3597437
175	0xbe445d6f	-0.19176267
176	0xbecf296a	-0.40461284
177	0xbebc2558	-0.3674724
178	0xbddc71bf	-0.10763883
179	0xbe572b3b	-0.21012585
180	0xbed32bcc	-0.41244352
181	0xbd665b2e	-0.0562393
182	0xbe4a72da	-0.19770375
183	0xbe5095de	-0.2036967
184	0x3d2f3f2a	0.042784847
185	0xbebc6162	-0.36793047
186	0xbef83a46	-0.4848196
187	0xbecccebe	-0.40001482
188	0xbd4fb4d5	-0.050709564
189	0x3e1b1bbb	0.15147297
190	0xbd742484	-0.059605137
191	0xbe0e66e0	-0.13906431
192	0xbc720baa	-0.014773289
193	0xbdc48339	-0.09595341
194	0x3e709af9	0.23496617
195	0xbeac03f4	-0.33596766
196	0xbe28c1c8	-0.16480172
197	0x3e440bcd	0.19145127
198	0x3e3959c6	0.18100652
199	0xbea0513a	-0.3131197
200	0x3e17e84c	0.14834708
201	0xbedcb5ec	-0.43107545
202	0xbe07375a	-0.13204709
203	0x3e0ada18	0.13559759
204	0xbbccb5d1	-0.00624726
205	0x3e22f30f	0.15913032
206	0xbdbcfc46	-0.09227805
207	0xbce1f051	-0.027580412
208	0xbeefe46a	-0.46853954
209	0xbeacee6e	-0.33775657
210	0x3dd6b42a	0.10483582
211	0xbd1e1468	-0.03859368
212	0xbdb153e7	-0.08658581
213	0xbe4fb803	-0.20285039
214	0xbe52f629	-0.20601715
215	0xbed00e9c	-0.40636146
216	0xbdae9010	-0.085235715
217	0x3e8e50f5	0.2779614
218	0xbe4507f6	-0.19241318
219	0x3e254626	0.16140041
220	0xbeb6fd7c	-0.35740268
221	0xbe5fb997	-0.2184814
222	0x3eb29db5	0.34885946
223	0xbefdd86b	-0.49579176
224	0xbe862018	-0.2619636
225	0xbf2d5bca	-0.67718184
226	0xbe2b7c0a	-0.16746536
227	0xbe3b50fe	-0.18292615
228	0xbee4136e	-0.44546074
229	0xbe48f940	-0.19626331
230	0x3df88bb8	0.12136024
231	0xbdc54d4e	-0.09633885
232	0xbf02b579	-0.51058155
233	0xbedd0372	-0.4316669
234	0xbdae5d48	-0.08513886
235	0x3e20f521	0.1571851
236	0xbe9f3a39	-0.31099108
237	0x3df78042	0.1208501
238	0xbe4a096c	-0.19730157
239	0xbd291265	-0.041277308
240	0xbe85142d	-0.25991955
241	0xbe8b9fb1	-0.27270272
242	0xbd154d91	-0.036450926
243	0xbea6833b	-0.32521996
244	0xbe81bd10	-0.25339556
245	0xbd2481ed	-0.04016297
246	0x3db0f3db	0.08640262
247	0xbd9906c9	-0.07471997
248	0xbda99599	-0.082804866
249	0xbed31001	-0.41223148
250	0xbe2cb3be	-0.16865441
251	0xbeb3cb81	-0.351162
252	0x3e3ccc0e	0.18437216
253	0x3df185aa	0.117930725
254	0xbe78dc9e	-0.24302909
255	0xbebe1593	-0.37125835

fc2.weight f4 [128, 256]
0	0xbe96217f	-0.2932243
1	0x3d961573	0.0732831
2	0xbf4cc916	-0.7999433
3	0xbe90502c	-0.28186166
4	0xbe37ffb7	-0.17968641
5	0xbd3fb080	-0.046799183
6	0x3da9ae95	0.08285252
7	0x3e01ec12	0.1268771
8	0x3ce2d99f	0.02769166
9	0xbe9fc672	-0.3120609
10	0xbdf57051	-0.11984313
11	0x3e4ea6a4	0.20180756
12	0xbe61e5ad	-0.2206027
13	0xbddec23a	-0.108768895
14	0xbed4105c	-0.4141873
15	0x3ec266bd	0.37969008
16	0xbe18d0dd	-0.14923425
17	0x3e761325	0.2403074
18	0xbf1826d3	-0.5943424
19	0xbe0d549e	-0.1380181
20	0xbef3336a	-0.47500163
21	0x3ed81c5a	0.4220913
22	0x3e7e8011	0.24853541
23	0x3eabdba8	0.33566022
24	0x3cd41632	0.02588949
25	0xbdf4cd00	-0.11953163
26	0xbf00bde8	-0.50289774
27	0xbe2145db	-0.15749304
28	0xbd75bcf2	-0.059994645
29	0xbeec410b	-0.46143374
30	0xbe4d4bf2	-0.20048502
31	0xbe752468	-0.23939669
32	0xbe935505	-0.28775802
33	0xbe821fe3	-0.25414953
34	0x3f0588a8	0.52161646
35	0xbd355e17	-0.044279184
36	0x3eb55c0a	0.35421783
37	0xbef172a7	-0.47157785
38	0xbf0dd672	-0.5540534
39	0xbf1d8375	-0.6152871
40	0x3e7e40d8	0.24829423
41	0x3cb2aa19	0.021809625
42	0xbdbaef23	-0.09127643
43	0x3ea60f13	0.32433376
44	0xbb727791	-0.0036997537
45	0x3ebb9a7f	0.3664131
46	0xbdd3f2cb	-0.103490435
47	0xbf4c3ccd	-0.79780275
48	0x3e68e25e	0.22742602
49	0x3d705756	0.05867704
50	0xbf053121	-0.5202809
51	0xbdea8ea5	-0.114529885
52	0x3e26c62d	0.16286536
53	0xbe8230d0	-0.25427866
54	0xbccde6e7	-0.025134517
55	0xbe779a63	-0.24179988
56	0x3e133ce6	0.143787
57	0x3e536146	0.20642576
58	0xbebf9c8e	-0.3742413
59	0xbde3bd28	-0.11120063
60	0xbe1ffef5	-0.15624602
61	0x3e3592fc	0.17731851
62	0xbeb1f455	-0.34756723
63	0x3d803d76	0.06261723
64	0xbd78d459	-0.060749386
65	0xbea68a06	-0.3252718
66	0x3e1b86f2	0.15188196
67	0x3b03c0bc	0.0020103892
68	0x3e967465	0.29385677
69	0x3d30196d	0.042992998
70	0xbe81c24d	-0.25343552
71	0x3e9a584c	0.3014549
72	0x3e288235	0.1645592
73	0xbdd95fcc	-0.10613975
74	0xbed0b094	-0.40759718
75	0xbedaa2d4	-0.42702353
76	0xbed5253d	-0.41629973
77	0xba5d88dc	-0.00084508746
78	0xbd374a0d	-0.044748355
79	0x3ebfd4f3	0.37467155
80	0x3d834bf4	0.06410971
81	0xbf0bc3aa	-0.54595435
82	0xbee58fb6	-0.44836205
83	0x3eff427b	0.49855408
84	0x3d9d85b1	0.07691515
85	0xbc631f4d	-0.013862443
86	0x3cfae1a2	0.030625168
87	0x3c766ab2	0.015040087
88	0xbf414668	-0.75498056
89	0x3eafe0e1	0.34351256
90	0xbe9529e6	-0.29133528
91	0xbf36754c	-0.7127273
92	0xbe125614	-0.14290649
93	0xbe686a9b	-0.22696917
94	0xbdb2ffa6	-0.08740167
95	0xbeecbb36	-0.4623658
96	0xbe2a48b5	-0.16629298
97	0xbf146740	-0.57970047
98	0x3ec4a6ea	0.38408595
99	0x3e3a3b59	0.18186702
100	0xbbe46cb4	-0.0069709662
101	0x3c944c1b	0.018102696
102	0xbdb66ad7	-0.08907097
103	0xbea6603a	-0.3249529
104	0xbe12af71	-0.14324738
105	0xbe936b87	-0.28792974
106	0x3d676e2a	0.056501545
107	0x3d935cd7	0.07195442
108	0xbe07bd79	-0.13255872
109	0x3e444506	0.19166955
110	0xbebf9bb4	-0.3742348
111	0xbed77cda	-0.42087442
112	0xbecf7dc6	-0.40525645
113	0x3ea0591c	0.31317985
114	0x3f5e3009	0.86792046
115	0x3e264f0d	0.16241093
116	0x3efe868d	0.4971203
117	0x3ed92d5d	0.42417422
118	0xbdbc59ba	-0.091968015
119	0xbd77b795	-0.06047781
120	0xbd5e046c	-0.054203436
121	0xbeb67cf8	-0.3564222
122	0x3e89cb95	0.26913133
123	0x3ed782f2	0.4209209
124	0x3e19d580	0.1502285
125	0x3e72dc1a	0.23716775
126	0x3c147e95	0.009063383
127	0x3d937228	0.07199508
128	0xbed36c64	-0.41293633
129	0x3e416343	0.18885522
130	0x3f092c1b	0.53582925
131	0xbee74744	-0.4517156
132	0xbdcd9c57	-0.10039585
133	0xbdc72db3	-0.09725513
134	0xbe1215a3	-0.14266066
135	0x3e6bc12e	0.23022911
136	0x3e75709f	0.23968743
137	0xbe8a4333	-0.27004394
138	0xbcf61266	-0.03003807
139	0xbe0ff352	-0.14057663
140	0x3e427e1e	0.18993422
141	0xbec28dad	-0.37998715
142	0xbdc31e17	-0.095272236
143	0x3c78d6ef	0.015187963
144	0xbddb490d	-0.10707293
145	0xbd347789	-0.04405931
146	0x3d923518	0.07139033
147	0xbebdd7d8	-0.37078738
148	0x3dc339f4	0.09532538
149	0x3e9c81f2	0.3056789
150	0x3e00da68	0.12583315
151	0xbd82dad0	-0.063893914
152	0xbee50a87	-0.44734594
153	0x3e035cb6	0.12828335
154	0xbac318d5	-0.001488472
155	0xbf0e4274	-0.5557015
156	0xbe34cdaf	-0.17656587
157	0x3e062ee3	0.13103823
158	0x3cf8826a	0.030335624
159	0xbef4c815	-0.478089
160	0xbcf82e29	-0.030295448
161	0xbe91d2e0	-0.28481197
162	0x3e9d31e6	0.30702132
163	0x3e89d273	0.26918373
164	0xbe86e779	-0.26348475
165	0x3dc755f8	0.09733194
166	0x3e4106c3	0.18850236
167	0xbed78b4c	-0.42098463
168	0xbe97ed1c	-0.29673088
169	0xbe3a4829	-0.1819159
170	0xbef321d0	-0.47486734
171	0xbf09039a	-0.5352112
172	0xbec0759e	-0.37589735
173	0xbe55a46e	-0.20863506
174	0xbe831912	-0.25605065
175	0x3e20a194	0.15686637
176	0x3d315bc2	0.043300398
177	0x3e87bdea	0.2651208
178	0x3c62cdb8	0.0138429925
179	0xbe32d008	-0.1746217
180	0xbedfc610	-0.43705797
181	0x3dd48fed	0.10379014
182	0xbc4890e9	-0.0122415805
183	0x3e6b8c30	0.23002696
184	0x3e59f8f6	0.21286377
185	0xbe49a566	-0.19692001
186	0xbeb4a4e1	-0.35282043
187	0x3e0bd9b6	0.13657269
188	0xbe23b66c	-0.15987557
189	0xbd8cdbcc	-0.068778604
190	0x3dfd3641	0.12363864
191	0xbe185a08	-0.14878094
192	0xbf4f98c2	-0.81092465
193	0xbeaebfd6	-0.34130734
194	0xbe01dba4	-0.12681442
195	0xbea1cab1	-0.31599954
196	0xbf1ff8ba	-0.624889
197	0xbe2d614e	-0.1693165
198	0xbc3de86b	-0.011591057
199	0x3eb9db47	0.36300108
200	0xbefa7b7e	-0.48922342
201	0xbd672cbf	-0.056439158
202	0xbdd6dd99	-0.10491485
203	0xbedc7a56	-0.43062085
204	0xbe4b73b2	-0.19868353
205	0x3c6d623c	0.014488753
206	0x3dd7e6c3	0.10542061
207	0x3e8aff25	0.27147785
208	0xbe951632	-0.29118496
209	0xbf668a80	-0.90055084
210	0x3dae4a83	0.08510306
211	0x3b500594	0.0031741606
212	0x3baf432a	0.0053485828
213	0x3de1bb48	0.11022049
214	0xbe8e2937	-0.2776582
215	0xbe1a1754	-0.15047961
216	0x3e3c5a0c	0.18393725
217	0xbe004ade	-0.1252856
218	0x3cd4134d	0.02588811
219	0xbee8c4c4	-0.4546262
220	0xbe2be611	-0.16786982
221	0xbf36ec1e	-0.71454036
222	0x3c97f3e8	0.01854892
223	0xbef88bc1	-0.48544124
224	0xbea8563e	-0.32878298
225	0xbdde921f	-0.10867714
226	0xbeba555c	-0.3639325
227	0x3ebc0f4f	0.3673043
228	0xbdf8373f	-0.12119912
229	0xbe887582	-0.2665215
230	0x3e8897b9	0.26678255
231	0xbe95c70c	-0.29253423
232	0xbc50cb99	-0.012743854
233	0xbda6971a	-0.08134289
234	0xbf246fdd	-0.6423319
235	0x3f014869	0.50501114
236	0xbe6d3d49	-0.2316791
237	0xbda8d102	-0.0824299
238	0xbda50e2c	-0.08059344
239	0xbd6c7b20	-0.05773461
240	0xbe6afcec	-0.22948045
241	0xbed56d7b	-0.4168509
242	0xbecf8165	-0.40528408
243	0x3db102b0	0.08643091
244	0xbf1c49c3	-0.6105005
245	0x3e38eb94	0.18058616
246	0x3e1fe0bb	0.15613072
247	0xbdaba5df	-0.08381247
248	0xbe95dffc	-0.2927245
249	0xbe59cc6d	-0.21269388
250	0x3edce6a4	0.43144715
251	0x3eb332ba	0.3499964
252	0xbedad7ae	-0.42742676
253	0xbec67975	-0.3876454
254	0xbe04bff4	-0.1296385
255	0x3e28a429	0.16468872

fc2.bias f4 [128]
0	0xbedbb4f4	-0.42911494
1	0xbe194afd	-0.14970012
2	0xbe27d8f9	-0.16391362
3	0xbe059e76	-0.1304873
4	0xbdaa1234	-0.08304253
5	0xbe09d7fd	-0.13461299
6	0xbcca08bb	-0.024662366
7	0xbea5e471	-0.3240085
8	0xbe9aa118	-0.3020103
9	0x3de45564	0.111490995
10	0xbd58ce71	-0.052931253
11	0x3da9785c	0.0827491
12	0x3e3a4af4	0.18192655
13	0xbde7f25a	-0.11325522
14	0x3e325002	0.17413333
15	0xbea21d9b	-0.31663212
16	0xbeef3bc1	-0.46725276
17	0xbede1594	-0.43375838
18	0xbe48e131	-0.19617154
19	0xbc4e05f4	-0.0125746615
20	0xbda6b49f	-0.081399195
21	0xbe800682	-0.25004965
22	0x3e359bf5	0.17735274
23	0xbeb0fa16	-0.345658
24	0xbd22710d	-0.039658595
25	0xbd9ff85a	-0.07811041
26	0xbeede2ef	-0.464622
27	0xbd1adc08	-0.037807494
28	0xbebe418a	-0.37159377
29	0xbeccc730	-0.39995718
30	0xbe97d0a9	-0.29651383
31	0xbd0efaa4	-0.034907
32	0x3dd58645	0.104260005
33	0xbee1e93f	-0.44123265
34	0xbeb73c0c	-0.35788
35	0xbe7ec1df	-0.24878643
36	0xbddb25a0	-0.10700536
37	0xbeb6240a	-0.3557437
38	0xbed380c0	-0.41309166
39	0xbf545cd8	-0.8295417
40	0xbe8a26aa	-0.26982623
41	0xbd4274f4	-0.047474816
42	0xbf18a5bc	-0.5962789
43	0xbd848d3c	-0.06472251
44	0xbef13f32	-0.47118527
45	0x3ddda10d	0.108217336
46	0xbe2e1079	-0.16998471
47	0xbe69f157	-0.2284597
48	0x3e1f149f	0.1553521
49	0xbedc1ea8	-0.4299214
50	0xbf1e47d6	-0.6182836
51	0x3c747a6e	0.014921768
52	0xbef65a72	-0.4811588
53	0xbe98ec9a	-0.29868013
54	0xbc80aca9	-0.01570733
55	0xbd35c7bf	-0.044379946
56	0xbd6bc7c2	-0.05756355
57	0xbc58e582	-0.013238313
58	0x3e9de512	0.3083883
59	0xbeb35b85	-0.3503076
60	0xbde03df4	-0.109493166
61	0xbf1ba3e7	-0.6079697
62	0xbe9de6c9	-0.30840138
63	0xbeccfa50	-0.40034723
64	0xbe9b6f12	-0.30358177
65	0xbd1aed0f	-0.037823733
66	0xbf02f81d	-0.5115984
67	0xbf00b049	-0.5026899
68	0xbe3b464e	-0.18288538
69	0xbe9fab0b	-0.31185183
70	0xbd311db0	-0.043241203
71	0xbe25a3cd	-0.16175766
72	0xbedafe90	-0.4277234
73	0xbe49f397	-0.19721828
74	0xbe322dae	-0.17400238
75	0xbea240df	-0.31690118
76	0xbecfc464	-0.40579522
77	0x3b261b66	0.002534592
78	0xbed45152	-0.41468292
79	0xbf02f698	-0.5115752
80	0xbf2e8ce2	-0.6818372
81	0xbee1fbc4	-0.44137394
82	0xbd135930	-0.035973728
83	0xbe3e7004	-0.18597418
84	0xbe3b67cb	-0.18301313
85	0x3da885f2	0.08228673
86	0x3c3ffd72	0.011718141
87	0x3d090712	0.03345401
88	0xbd26c5ba	-0.04071591
89	0xbe0067f6	-0.12539658
90	0x3d189626	0.037252568
91	0xbea49ae6	-0.32149428
92	0x3c01b4be	0.007916627
93	0xbe587cdc	-0.2114138
94	0xbe9b6be9	-0.30355766
95	0xbdb53acf	-0.088491075
96	0x3cf15e76	0.029463988
97	0xbf115b02	-0.5677949
98	0x3e0ceb34	0.13761598
99	0xbdce707a	-0.10080047
100	0xbf094244	-0.5361674
101	0xbd1f4099	-0.038879965
102	0xbe236e6f	-0.15960096
103	0xbeb5e8cf	-0.3552918
104	0xbf2e4366	-0.6807159
105	0xbf15b1c2	-0.5847436
106	0xbdf06b44	-0.11739209
107	0xbdbebd29	-0.09313423
108	0xbcdec22d	-0.0271922
109	0xbd8b0d14	-0.06789604
110	0xbda6c4d1	-0.081430085
111	0xbee0d3ed	-0.43911687
112	0x3d0dd424	0.03462614
113	0xbecec63f	-0.40385625
114	0xbe82605b	-0.25464138
115	0xbebca3c1	-0.36843684
116	0xbdeee4bc	-0.11664721
117	0xbdd3d7c9	-0.10343892
118	0xbc05228f	-0.008125915
119	0xbea45fbd	-0.32104293
120	0xbe98671a	-0.2976616
121	0xbe6fcc71	-0.23417832
122	0xbd21317f	-0.039353844
123	0xbe921826	-0.2853405
124	0xbed20f1c	-0.41027153
125	0xbd4bd589	-0.04976419
126	0xbc8aad24	-0.016928263
127	0xbc734954	-0.014849026

fc3.weight f4 [2, 128]
0	0xbcff459e	-0.031161126
1	0x3cbcafb6	0.023033004
2	0x3d206e52	0.03916771
3	0x3a33d285	0.0006859678
4	0x3c142ebe	0.009044347
5	0xbd17bb43	-0.03704382
6	0x3db968cb	0.09053191
7	0x3b8b8491	0.0042577465
8	0x3e869568	0.26285863
9	0xbe9fe5d3	-0.3123003
10	0x3c162bdf	0.009165733
11	0x3c7fad4b	0.015605281
12	0xbe1960aa	-0.1497828
13	0xbc2dc43a	-0.010605866
14	0x3d0e447c	0.03473328
15	0x3cc82daf	0.024435846
16	0xbe448ae1	-0.19193603
17	0x3dabade6	0.08382778
18	0xbe35dd97	-0.17760311
19	0x3dd6505f	0.10464548
20	0xbdb08a17	-0.086200885
21	0xbdb76c91	-0.08956254
22	0xbe024a71	-0.1272371
23	0xbd88c960	-0.06679034
24	0x3dc4f845	0.09617666
25	0x3cc7ad6e	0.02437469
26	0xbc61f455	-0.013791163
27	0x3c4f49e7	0.012651897
28	0xbd2cf469	-0.042225275
29	0xbe7b5876	-0.24545464
30	0x3e1157cd	0.1419365
31	0x3dd2e66a	0.10297854
32	0xbe0ab275	-0.13544638
33	0xbdc78a74	-0.09743205
34	0x3e049a89	0.12949575
35	0x3e8b672a	0.27227145
36	0x3d81cdab	0.06338056
37	0x3caf81d9	0.02142422
38	0x3e089be8	0.13340724
39	0xbf1fb6fc	-0.62388587
40	0x3f1267ee	0.57189834
41	0x3da1498e	0.078753576
42	0xbe98d2f3	-0.2984844
43	0x3eaa0efd	0.3321456
44	0xbcd151ec	-0.025551759
45	0xbf9fa81b	-1.2473177
46	0x3dceca18	0.1009714
47	0xbd0420c3	-0.032257807
48	0x3e2f6394	0.1712783
49	0x3dc12197	0.09430235
50	0xbe9a6f22	-0.30162913
51	0xbdd48dd9	-0.10378618
52	0x3ea5e8d9	0.3240421
53	0x3f0b7ef2	0.5449058
54	0xbf2fc25c	-0.68655944
55	0x3e9b69a4	0.30354035
56	0xbd794ba9	-0.06086317
57	0x3d34cee8	0.044142634
58	0x3b7c14d9	0.0038464575
59	0xbe63e744	-0.2225619
60	0x3b7be7ec	0.0038437797
61	0x3d706262	0.058687575
62	0x3e3e2a8e	0.18570921
63	0x3f225896	0.6341642
64	0xbd3b666c	-0.045751974
65	0x3d694c28	0.056957394
66	0x3d671403	0.05641557
67	0xbe8ae655	-0.27128854
68	0xbc2360e5	-0.009971832
69	0xbec4da7b	-0.38447937
70	0xbd225789	-0.03963426
71	0x3cdacccf	0.026708988
72	0xbddc1ebe	-0.10748051
73	0xbd2d8994	-0.042367533
74	0xbf02ac78	-0.51044416
75	0x3ddf4a1a	0.109028056
76	0xbe810dcc	-0.2520584
77	0x3dfcf974	0.12352267
78	0x3daf0f7e	0.08547877
79	0xbebc52fc	-0.36782062
80	0xbeb066df	-0.34453484
81	0x3ee5821d	0.4482583
82	0x3e707019	0.23480262
83	0x3b7f36cd	0.0038942576
84	0xbddb694f	-0.107134454
85	0xbd4257d8	-0.047447056
86	0xbe8a4cf6	-0.27011842
87	0xbddfffe1	-0.10937477
88	0x3e8cc377	0.27492878
89	0x3d6b46a2	0.057440408
90	0x3dcaa2bc	0.0989432
91	0x3e287287	0.16449939
92	0x3e7e565f	0.24837635
93	0x3dc124b7	0.09430831
94	0x3e48a9d1	0.1959603
95	0x3da1b6c8	0.07896191
96	0xbda86b0a	-0.08223541
97	0x3df17e49	0.11791665
98	0x3e513474	0.20430166
99	0x3e56382f	0.2091987
100	0xbe8e0624	-0.2773906
101	0x3da4c5a1	0.08045507
102	0x3eaa66e7	0.33281633
103	0x3f251767	0.64488834
104	0xbe754c11	-0.23954798
105	0xbfae0add	-1.3597065
106	0x3d15c812	0.036567755
107	0x3ebf859f	0.37406632
108	0xbd434dec	-0.047681734
109	0xbdcfa635	-0.10139123
110	0xbc30c5c1	-0.010789336
111	0xbc00e6c3	-0.007867518
112	0x3d3b4ae2	0.04572571
113	0xbf5ec826	-0.8702415
114	0xbd419943	-0.047265302
115	0xbcd3e534	-0.025866129
116	0x3d396270	0.045259893
117	0x3d9703e6	0.073737904
118	0x3b215033	0.0024614453
119	0xbf807964	-1.0037045
120	0x3d724339	0.05914614
121	0x3de88a3a	0.113544896
122	0xbe4bc4dd	-0.19899316
123	0x3c00cd99	0.007861518
124	0xbe9ff410	-0.31240892
125	0xbc741beb	-0.014899234
126	0xbba4b145	-0.005026015
127	0x3d533488	0.05156377
128	0xbe89cfeb	-0.2691644
129	0x3e3b9c1a	0.18321267
130	0x3c4c6b91	0.012476818
131	0x3e4a8fdc	0.1978144
132	0xbdddd11e	-0.108309016
133	0x3e68065f	0.2265868
134	0xbfd6df3c	-1.6786876
135	0xbf3143be	-0.6924399
136	0xbf8798bc	-1.0593486
137	0x3d1d4855	0.03839906
138	0x3c0aee95	0.008479734
139	0x3eb39470	0.35074186
140	0x3d68dc7c	0.056850895
141	0xbc026423	-0.007958445
142	0xbdd63478	-0.10459226
143	0x3ea506c5	0.32231727
144	0xbbd6caa5	-0.006554919
145	0xbf549358	-0.8303733
146	0xbe810e6f	-0.25206324
147	0xbddbedf2	-0.10738744
148	0xbe147a08	-0.14499676
149	0xbd9ee6db	-0.07758876
150	0x3e0b3e0d	0.13597889
151	0x3eb3051e	0.34964842
152	0x3d006814	0.031349257
153	0xbd24a678	-0.04019782
154	0x3e9dc424	0.30813706
155	0x3cc8ca6c	0.024510585
156	0xbf252efe	-0.6452483
157	0x3e3135e1	0.1730571
158	0xbde34451	-0.11097015
159	0x3dd61c60	0.10454631
160	0xbd4a2e4d	-0.049360562
161	0x3ceb5a7c	0.02872967
162	0xbd7fadd2	-0.062421627
163	0x3e524ee6	0.2053791
164	0x3de1c5e6	0.11024074
165	0x3f02440d	0.5088509
166	0xbe2db149	-0.1696216
167	0x39e41f70	0.00043510972
168	0x3dded740	0.108808994
169	0xbeb72061	-0.3576689
170	0xbdb362ef	-0.087591045
171	0x3cafa8f0	0.02144286
172	0xbef88191	-0.4853635
173	0x3dba873d	0.09107826
174	0x3d89469f	0.06702923
175	0xbf3c86a5	-0.7364295
176	0x3cd01136	0.025398832
177	0xbebbc90e	-0.3667683
178	0xbc7054f1	-0.014668689
179	0x3d19dc06	0.037563346
180	0x3ca3f3f0	0.02001378
181	0x3e94def2	0.29076344
182	0xbe5651d7	-0.20929657
183	0x3e547997	0.20749508
184	0xbfa4d166	-1.2876403
185	0x3d04acd4	0.032391384
186	0xbea62699	-0.32451323
187	0xbf8d643b	-1.1046213
188	0xbc5101ab	-0.012756745
189	0x3f28bc66	0.65912473
190	0xbe9a8cea	-0.30185634
191	0x3f01c589	0.5069204
192	0xbf3c0bc3	-0.73455447
193	0x3dd29429	0.102821656
194	0x3ef71d47	0.48264524
195	0x3e3afdab	0.18260829
196	0xbe8a549c	-0.27017677
197	0x3e7439c7	0.23850165
198	0x3ee2afff	0.442749
199	0xbccca62e	-0.024981584
200	0xbcabacee	-0.020956483
201	0xbdc8c782	-0.09803678
202	0xbed14223	-0.4087077
203	0x3e624a2d	0.22098608
204	0x3d162134	0.03665276
205	0xbee09127	-0.43860742
206	0x3e38ce8f	0.18047546
207	0xbcdcf87d	-0.026973957
208	0xbdfa2525	-0.12214116
209	0x3d63ba52	0.05559761
210	0xbe8327c3	-0.25616273
211	0x3d861027	0.065460496
212	0x3eedc91f	0.46442506
213	0xbe4662fd	-0.19373699
214	0x3e88a057	0.2668483
215	0x3d8ac65c	0.06776115
216	0x3dca6a47	0.09883552
217	0xbed204fb	-0.41019425
218	0x3dd37b80	0.1032629
219	0x3e35016c	0.17676324
220	0x3e84bfae	0.2592749
221	0xbd6997d8	-0.057029575
222	0x3ec2c6a8	0.38042188
223	0xbbedecc0	-0.007260889
224	0x3d2623c6	0.04056146
225	0xbf36f3a5	-0.7146552
226	0x3ce7ad01	0.028280737
227	0xbbba8693	-0.005692312
228	0xbdd7b67f	-0.10532855
229	0xbfe0be42	-1.7558062
230	0x3e41ea56	0.18937048
231	0xbf19c096	-0.6005949
232	0xbef047e3	-0.46929845
233	0xbeb81c18	-0.35958934
234	0x3c37e70b	0.0112245185
235	0xbe79bbc6	-0.24388036
236	0xbf82b0c7	-1.0210198
237	0xbeb44492	-0.35208565
238	0xba53d2de	-0.0008080433
239	0xbfec0aa3	-1.8440746
240	0xbf23b9c6	-0.6395534
241	0x3d443ed1	0.04791147
242	0xbeb17ca7	-0.34665415
243	0xbe94b2a9	-0.29042557
244	0xbf282e30	-0.65695477
245	0xbe75b538	-0.2399491
246	0x3d0bf3a6	0.034167908
247	0xbe519df2	-0.20470408
248	0xbf008f37	-0.5021853
249	0x3cb61cd6	0.022230547
250	0xbe6a4a1d	-0.22879834
251	0xbebf7bf0	-0.37399244
252	0xbe648554	-0.22316486
253	0x3d0225fe	0.031774513
254	0xc013941f	-2.3059156
255	0x3e033328	0.12812483

fc3.bias f4 [2]
0	0x3d16f7bb	0.036857348
1	0x3dc9de68	0.09856874
