checkpoint1_critic.pth (torch_old, 159711 bytes, 5 tensors)

fc1.weight f4 [256, 24]
000000 7f d5 1e be 7d 2e 79 3b dc 55 c5 3c e0 97 15 3e
       -0.1551113 0.0038022094 0.024088793 0.14608717
000010 d9 7f 50 3c 38 c5 76 bf 69 fb c1 bc 38 cf 5a 3e
       0.012725794 -0.9639468 -0.023679452 0.2136811
000020 0f 99 02 be 07 ff 8f 3d af 4d 8e bd 20 d5 da 3d
       -0.127537 0.070310645 -0.06948411 0.106851816
000030 4a 9f b5 bd 89 ca 0c c0 c7 ac f8 3c 68 b5 eb 3d
       -0.088682726 -2.1998618 0.030355824 0.1150921
000040 06 c9 ec bc b2 79 23 3c fe ad 57 3a 59 4a ba 3c
       -0.02890445 0.009977745 0.0008227526 0.02274053
000050 7e 32 aa be 70 55 38 3f e3 8f c1 bd 72 92 4d 3d
       -0.33241647 0.7200537 -0.09451272 0.05018849
000060 62 7d 07 3f fa d1 ed 3e ce b0 82 bc 08 e8 08 3e
       0.52925694 0.46449262 -0.015953448 0.13369763
000070 50 47 02 bf 00 dd 86 3e 55 4f eb 3c 53 4e e6 3d
       -0.50890064 0.26340485 0.028724352 0.11245408
000080 07 d9 1b 3f 86 f2 f6 3e 03 db 41 be 72 f1 71 3d
       0.6087803 0.48231906 -0.18931203 0.05906815
000090 7a 14 bc be 47 8a a7 3e e6 c3 66 be 58 88 69 3d
       -0.36734372 0.32722685 -0.22535667 0.057014793
0000a0 1f f4 0a 3f 67 2d 8f 3e 71 63 53 3d 33 8c b2 be
       0.5427875 0.27964327 0.051608507 -0.3487259
0000b0 83 cd 11 3d 54 18 ca 3e 51 90 c0 3d de 41 a4 be
       0.035596382 0.39471686 0.09402526 -0.32081503
0000c0 97 31 89 3d 41 1f 04 bf 74 a9 a1 bd 83 11 df 3d
       0.06698912 -0.5161019 -0.07893649 0.10892012
0000d0 19 eb e7 bd 46 f3 2a bf 26 0e 6c bd 04 89 fa 3d
       -0.11324138 -0.66777456 -0.05763068 0.12233165
0000e0 55 bb 5c 3d 36 da fe be 64 5d fe bd 65 f0 5f be
       0.05388959 -0.49775857 -0.124201566 -0.21869047
0000f0 9a dc 4e 3d 72 ee 04 c0 a9 fb e0 bd df 8d 11 be
       0.05050335 -2.0770535 -0.109855 -0.14214276
000100 13 2e 16 3e 66 e1 0d bf 17 9b 1c bd 22 4d c3 bd
       0.14666013 -0.55422056 -0.038233843 -0.09536196
000110 2b bd ab 3e a1 37 64 bd b8 a7 c7 bd b8 46 be bd
       0.3354276 -0.055717114 -0.09748787 -0.09290832
000120 24 9b 20 3c 66 49 bb 3d d3 34 b4 bd cd 1e a0 3d
       0.009802613 0.09144859 -0.08799138 0.07818375
000130 b1 8c 70 be c5 d3 8c be e1 82 9d bd da 84 c9 3d
       -0.2349117 -0.27505317 -0.07690979 0.098397925
000140 dd e1 41 bd 87 8c 12 3e 99 ad 2b bd 1b 3a b1 3d
       -0.04733454 0.1431142 -0.041913603 0.08653661
000150 03 e5 20 bc 59 0e 3d bf ef a2 b4 3c ca 15 11 3c
       -0.009820226 -0.7385002 0.022050349 0.008855293
000160 29 dc 9a bd 07 71 04 3e ed db 80 bd 35 c9 10 3e
       -0.075615235 0.12933742 -0.062919475 0.14139254
000170 b6 f2 36 3e d4 31 fa bf ec 26 44 bd 0f 6a 08 3e
       0.17866024 -1.9546456 -0.04788868 0.13321708
000180 7a 9d ea 3e bf 81 37 bf 81 1c 9b bc 8a 76 26 3c
       0.4582327 -0.7168235 -0.01893449 0.010160098
000190 6b 7d 6f be 08 21 57 bf 27 0d 2b 3d 32 ce 0f bd
       -0.23387687 -0.84034777 0.04176059 -0.035108753
0001a0 81 af 90 3e 55 61 26 bf ac f2 2b be d2 87 42 bd
       0.282589 -0.64992267 -0.1679179 -0.04749281
0001b0 1a 1b 25 be f4 44 fc bd 64 49 42 be 87 96 4a 3d
       -0.1612362 -0.12317839 -0.18973309 0.04945996
0001c0 e8 c5 f0 3e 56 c4 26 bf 99 41 fc bd e0 a0 ad 3d
       0.4702599 -0.65143335 -0.12317199 0.0847795
0001d0 4b f9 0d 3e ac 66 79 3e 50 8b a7 bd 26 ad 2d 3d
       0.13864629 0.24355572 -0.081808686 0.042401455
0001e0 f9 9f 5f 3f 04 69 19 3e e1 cd 4a 3d e9 01 17 bf
       0.87353474 0.14981467 0.049512748 -0.5898729
0001f0 89 2a 2a 3e a9 9f 88 bf 30 19 0e 3c d9 98 21 bf
       0.16617788 -1.0673724 0.008672997 -0.6312385
000200 bb 15 86 3d ad c0 8b be 63 f5 81 3d 0e 52 91 3d
       0.065471135 -0.27295437 0.06345632 0.07095729
000210 0c 64 49 be b8 a5 22 3d 10 9a 1e 3d 3f 08 42 3d
       -0.19667071 0.039708823 0.038721144 0.047371145
000220 f4 e7 4b 3e d8 b1 39 bd 38 0a ba bd 1e 32 10 3f
       0.19912702 -0.04533562 -0.0908398 0.5632647
000230 31 4c 35 be 9f b3 e8 3e 03 0f 9a bd eb ff fa 3e
       -0.17704846 0.4544954 -0.075223945 0.49023375
000240 fe f1 9f 3e e5 b6 33 3d 8f c5 a8 bd b0 4f b2 bd
       0.31239313 0.043875594 -0.08240806 -0.087066054
000250 94 c1 04 bd 27 2b 37 bf f1 1f 2b bd 6a 74 09 bd
       -0.032411173 -0.7155022 -0.04177851 -0.033558287
000260 4d 86 ff 3e ff e5 15 3e c9 3e 39 3b f0 0d e7 3d
       0.4990715 0.14638518 0.0028266183 0.11281955
000270 19 05 2c bc 9a e8 a3 be d4 31 a1 bd ca 29 87 3d
       -0.010499262 -0.32013398 -0.07870832 0.065997675
000280 cb 62 0a 3f 66 35 50 3e 5d 9e ce bc 30 d8 79 3d
       0.54056996 0.2033287 -0.025221998 0.060997188
000290 74 16 6c 3d 82 72 44 bf e9 14 e4 bc 73 86 d1 3d
       0.0576386 -0.76737225 -0.027842002 0.10230722
0002a0 ed 83 92 3e e5 ef 91 3c 95 e4 45 bc e3 56 b9 bd
       0.28616276 0.017814586 -0.012078424 -0.090497755
0002b0 22 0d 1c bf bd 0c ce bd 60 7c b2 3c 73 fe 8a bd
       -0.6095754 -0.100610234 0.021787822 -0.067868136
0002c0 ed c1 28 3f 2f 66 3b 3d a3 a8 23 bd e6 11 3c 3d
       0.6592091 0.045751747 -0.039955746 0.045915507
0002d0 2f 0b 12 bf 18 5e 01 bd 52 7a 01 3d 69 f9 ec 3d
       -0.57048315 -0.031583875 0.031610794 0.11571009
0002e0 9d 9e 53 3f 56 8b 1d 3c 12 e0 99 3b 5c 9a 2a 3d
       0.826639 0.00961574 0.0046959007 0.041651115
0002f0 93 0a 40 bf b9 2b bc 3d 9a 8c d7 3c 07 ec c7 3b
       -0.75016135 0.09188027 0.026312161 0.0061011347
000300 d6 50 b0 3d 89 8f 95 3e e5 7a b9 bc e7 e2 ac be
       0.08609168 0.2921107 -0.022641608 -0.33766863
000310 35 da 18 be 08 69 b1 3e ae e3 c7 ba 29 4d b9 be
       -0.1492699 0.34650445 -0.0015250349 -0.3619168
000320 e3 01 cf 3d d2 b8 b4 3e e3 c2 8d 3c d8 f7 33 be
       0.10107782 0.35297257 0.017304843 -0.17575014
000330 fd 16 62 3d 87 df c9 3e d0 03 88 bd 75 4c 82 be
       0.055197705 0.3942835 -0.06641352 -0.25448957
000340 eb 89 5b 3e 63 24 82 3e 24 97 a7 bd d3 2e e9 bc
       0.2143933 0.25418386 -0.08183125 -0.02846471
000350 7b 5d 8a 3e 04 33 25 3f 0e b1 a3 bd 02 e0 58 bd
       0.27024445 0.6453097 -0.07992755 -0.052948005
000360 ab bc 50 bd ce 6b 5f 3e e7 06 f3 bd 91 9a 67 be
       -0.050961178 0.21818468 -0.11866551 -0.22617556
000370 eb f3 cf bc 8d f0 44 be e8 a8 4f bd 08 c4 6f be
       -0.025384864 -0.19232388 -0.05069819 -0.23414624
000380 8a 97 60 3e af fc be 3e 36 ac 1e 3d b8 35 bb 3d
       0.21932808 0.37302157 0.038738452 0.091411054
000390 0a 6d 34 be ce 53 a8 be d7 9a f1 bc a5 b8 a5 3d
       -0.1761972 -0.32876438 -0.029492779 0.08091859
0003a0 47 b7 4c 3e 8f c5 17 3f 47 00 0f be 3f 9e 3f 3f
       0.1999179 0.59285825 -0.1396495 0.7485084
0003b0 1b ca 14 bf f3 22 e8 bd a1 3f 71 bd e3 64 36 3f
       -0.5812089 -0.11334791 -0.058898572 0.7124769
0003c0 8b b4 bd 3c bd 88 fe bd ed 35 22 bc 03 fd a7 3e
       0.023157379 -0.124284245 -0.009900552 0.3281022
0003d0 6b 0e 0b be df 2b 09 3f a0 ac bc bc fb 27 c1 3e
       -0.13579719 0.53582567 -0.023031533 0.37725815
0003e0 16 a6 62 3d 98 fc 0b be bd 68 1a 3d 3e f3 e9 bb
       0.055334173 -0.13670576 0.037697542 -0.0071395924
0003f0 f8 dd 90 3c 0e 7c 3d 3e 44 7b 3f bd fd 6f c0 3b
       0.017683968 0.18504354 -0.046748415 0.005872725

fc1.bias f4 [256]
000000 8e d0 e8 be fb 34 e0 3d b6 c9 13 3d bd 70 1f 3d
       -0.45471615 0.10947605 0.03608104 0.038925875
000010 63 75 0a bf 9b 56 2f bf 9b 81 63 bf 3f 2f 76 be
       -0.5408537 -0.68491524 -0.8886964 -0.2404146
000020 77 4a 7b bf 2b 64 14 bf 2a cc d6 bd 27 01 09 bf
       -0.981605 -0.57965344 -0.1048816 -0.53517383
000030 b6 2d 3c bd 60 02 97 be 23 59 cc bd 8d e3 c7 be
       -0.04594203 -0.29494 -0.09977939 -0.39040795
000040 c2 7d 08 be a6 9a 62 bd 98 c2 78 bf 30 15 bf be
       -0.13329223 -0.055323265 -0.97171926 -0.37320852
000050 f8 5a 86 be c8 ae 3d 3e 2d e5 a5 be f5 a9 d3 be
       -0.2624128 0.18523705 -0.3240141 -0.41340604
000060 e7 53 96 be 91 5c 0e bf 43 dc c9 bd 59 61 25 be
       -0.29360887 -0.55609995 -0.09856465 -0.16150416
000070 09 a1 d7 be d1 dd 30 3e 16 4e 21 be 18 37 d5 be
       -0.42115048 0.17272116 -0.15752444 -0.41643596
000080 7a 4b 3b bf 09 50 8c be 9e fc 21 3e df 0a 26 bf
       -0.73162043 -0.27404812 0.15819022 -0.6486034
000090 1e 3d 4d bf ac b1 c7 be 56 63 0b bf 87 ff 42 bf
       -0.8017138 -0.3900274 -0.5444845 -0.76171154
0000a0 75 f7 fc be 89 6c 9d be b3 08 13 bf 48 85 5a be
       -0.49407545 -0.30746868 -0.5743515 -0.21339905
0000b0 e2 9c 9c be 69 3c ff bc ba ae f0 be d0 45 90 bf
       -0.30588442 -0.031156735 -0.47008306 -1.1271305
0000c0 c5 9e ab 3e 51 ba 41 3e b2 ce 35 3d d0 66 80 3f
       0.3351957 0.1891873 0.044386573 1.0031376
0000d0 ed 1f 2e bf 18 fa fe 3c e1 85 ac 3e a7 93 6b be
       -0.68017465 0.031125113 0.33695891 -0.23005544
0000e0 4e 68 91 bf 6b 22 31 bf 71 00 5f bf a8 9e f1 3d
       -1.1359956 -0.6919314 -0.8711005 0.117978394
0000f0 02 b7 a6 3c 94 99 15 3e 6b 2d c0 be 52 25 5e bf
       0.020350937 0.14609367 -0.3753465 -0.86775696
000100 3b 69 35 be ce 2e f8 be 9e e9 ef be 69 d2 5a 3b
       -0.17715923 -0.4847321 -0.46857923 0.0033389574
000110 f2 0c c4 be e0 21 5f be 3e 12 83 be 6b 99 74 bf
       -0.38291126 -0.21790266 -0.25599855 -0.955466
000120 c9 81 1c bf 08 4c 5e bf da ab 3c bf fd 10 1c 3e
       -0.61135536 -0.86834764 -0.73699725 0.15240856
000130 d5 a0 91 3c b1 53 ab be 65 e9 44 be c8 cc 85 be
       0.017776886 -0.3346229 -0.19229658 -0.26132798
000140 5b 4f fb be ed 8a 40 3e f1 38 51 bf 81 99 97 be
       -0.4908398 0.18802996 -0.8172751 -0.29609302
000150 25 1b 86 3e f1 c6 04 bf 7c 65 78 be e9 1b 60 3d
       0.26192585 -0.5186606 -0.24257463 0.054714117
000160 96 04 c0 bd ec b9 10 bf 21 da 19 be 35 ae 27 bf
       -0.09375875 -0.56533694 -0.15024616 -0.65500194
000170 e4 28 19 bf 4f 2a 84 be 6b 48 bd bf fb 2d 0e bf
       -0.5982802 -0.2581353 -1.4787725 -0.5553891
000180 fc f9 8c 3d 50 59 dc be fe 35 af be cc 7c 2d bd
       0.06883618 -0.4303689 -0.3422088 -0.042355344
000190 df 5e 83 bc 01 59 fa be 47 db 00 bf a0 83 1d bf
       -0.016036449 -0.4889603 -0.5033459 -0.6152897
0001a0 95 6a 1f 3e 1c ec fa be 4d d0 a0 3d b6 c6 a2 be
       0.15568002 -0.49008262 0.0785223 -0.3179223
0001b0 db 69 c0 bd f2 64 90 bf a6 4a e2 be 18 f8 ad be
       -0.0939519 -1.1280806 -0.44197577 -0.33978343
0001c0 a7 19 81 be fe 91 23 bf 18 c1 1c be 85 bc 36 be
       -0.25214884 -0.6389464 -0.15308034 -0.17845352
0001d0 0c 96 6c 3c 37 d6 04 bf eb bf 7a bf 90 f2 b6 bd
       0.014440071 -0.51889366 -0.97949094 -0.08932984
0001e0 22 3a 78 be be ba 2b bc b4 03 57 3e 86 5f 05 bf
       -0.24240926 -0.0104815345 0.20997506 -0.5209888
0001f0 55 5f 0b bf 62 68 a6 be 76 71 f4 be ab 7d 8c bd
       -0.5444234 -0.32501513 -0.47742814 -0.06859907
000200 f2 4e 2e 3e e7 92 0e bf 28 5e d0 be 77 00 b6 be
       0.17022303 -0.55692905 -0.40696836 -0.3554723
000210 d6 a9 7d bf 60 c7 ea 3d 96 6b 3b 3e 2c 99 04 bf
       -0.99087274 0.11463809 0.1830276 -0.5179622
000220 08 08 ab be 1f 18 6a bf af 41 dc be 44 73 ac be
       -0.33404565 -0.91443056 -0.43018863 -0.3368169
000230 92 a2 8d 3e 57 7c 9d bf 07 47 12 3e cc 62 0c bf
       0.27663094 -1.230357 0.14284907 -0.5483825
000240 e8 44 21 bf a0 81 96 bf 72 28 48 bf f3 15 db be
       -0.6299577 -1.1758308 -0.78186715 -0.42790183
000250 09 e3 f3 3c 3d c0 c7 bd bb ec 8a 3c 7b f3 7b be
       0.029771345 -0.097534634 0.016958585 -0.24604599
000260 8c c0 e4 3e c6 94 52 bf 19 a0 0e 3f b7 15 16 be
       0.44678152 -0.8225826 0.5571304 -0.14656721
000270 7a 84 43 bf bf d9 19 be 3c 1b 0e bf 9e 2e 85 be
       -0.7637402 -0.1502447 -0.55510306 -0.2601213
000280 d0 5c 1b 3d e3 07 80 be 34 34 33 bf a4 24 28 3f
       0.03793031 -0.25006017 -0.7000153 0.6568091
000290 c2 1f ba be 61 e4 c6 be 24 1c 16 bf 32 33 2a be
       -0.36352354 -0.38846114 -0.5863669 -0.16621092
0002a0 18 42 92 bc b9 68 ca bd 5d 9d e1 be de f0 8c bf
       -0.017853782 -0.098832555 -0.4406537 -1.1011007
0002b0 ef 1d 96 bf 34 2c 4f bf dd 68 a3 bf 59 3d 0d be
       -1.1727885 -0.80926824 -1.2766377 -0.13792934
0002c0 2a f5 9a bf 72 95 99 bd c3 c5 8d bf 4f d9 8e be
       -1.2106068 -0.074992076 -1.1075977 -0.27900168
0002d0 a6 fb 90 be 54 50 21 bf 37 2d 1b bf 82 ba 2a bf
       -0.28316993 -0.63013196 -0.6061587 -0.6669084
0002e0 3e e2 7d be 45 6c 4a bf d1 cf 9f bf bc 49 bc bf
       -0.24793336 -0.79071456 -1.2485296 -1.4710002
0002f0 bb e8 53 be 53 df 9b be ba 56 36 be ef d2 41 3d
       -0.20694248 -0.3044382 -0.17806521 0.047320303
000300 d2 53 af be 13 cd 3e bf 6e bb 44 be ef 2f 97 be
       -0.34243637 -0.7453167 -0.19212124 -0.29528758
000310 ca ad 16 3e f9 1b 78 bf ce 6a 42 bd 72 28 c1 bc
       0.14714733 -0.9691768 -0.047465138 -0.023578856
000320 6d 76 3b bd 40 57 39 be a1 ec b2 be de 95 d4 be
       -0.045767237 -0.1809969 -0.3494616 -0.4152059
000330 ad eb af 3d 6f f4 27 3f 52 4e 27 bf 22 e1 5b be
       0.085898735 0.6560735 -0.6535388 -0.214726
000340 26 32 37 bf d2 0c 95 bf d8 e9 b0 3d 80 5d 5a 3e
       -0.71560895 -1.1644537 0.08638352 0.2132473
000350 c4 b7 b1 3e 1c 9c 2c 3c b6 0c 80 bf 1f 20 2f bf
       0.34710515 0.010535266 -1.0003879 -0.6840839
000360 d6 72 35 bf 17 f1 74 be 69 e9 8b be 2b 6f 56 be
       -0.7087835 -0.23920093 -0.27326515 -0.20940845
000370 5f 95 51 be 9f f4 3b bf 19 a6 3c 3f 80 37 bc be
       -0.20467137 -0.7342014 0.73690945 -0.36761093
000380 f6 8c 55 be 5f 6f 6c bf c4 8a 54 be 50 5e 85 be
       -0.20854554 -0.9235744 -0.2075606 -0.26048517
000390 3a f8 f2 be ab e5 d2 be 66 e3 16 be 27 ca 92 be
       -0.47455007 -0.41190848 -0.14735183 -0.28669855
0003a0 58 7d 56 bf 0a 27 0f bf 4a a5 58 be 5a 9b 23 be
       -0.8378501 -0.55918944 -0.21156803 -0.1597723
0003b0 80 b2 db be 0c e7 a4 3e 3f d8 0e 3e 31 b3 3a bf
       -0.42909622 0.32207525 0.13949679 -0.72929674
0003c0 68 57 94 be 0a 3f 0f bf f1 29 87 be c8 0f 90 be
       -0.28972936 -0.55955565 -0.26399186 -0.2813704
0003d0 c2 d1 5f be 6a 0a a7 3e 1b 81 2e be 63 09 40 bf
       -0.2185736 0.32625133 -0.17041437 -0.75014323
0003e0 e4 30 27 be 5e 99 fc be 92 4c 57 bf da 13 1d be
       -0.16327244 -0.4933576 -0.8410121 -0.15339604
0003f0 73 72 c0 3e d1 c0 9d 3e 94 9f 15 bf 85 cb 8d be
       0.37587318 0.3081117 -0.5844662 -0.27694336

fc2.weight f4 [128, 258]
000000 25 4b 5c 3d aa e7 bd 3d d7 d0 90 bc b0 a0 75 bc
       0.0537826 0.09272702 -0.017677708 -0.014991924
000010 c4 36 02 3d b5 12 00 3d f8 38 9f 3e ba ec 6c 3d
       0.03179051 0.03126784 0.3109815 0.057842948
000020 34 de 04 be 46 a5 a7 3d 4a 4c 82 bd ca 7e aa bd
       -0.12975389 0.0818582 -0.06362207 -0.08324964
000030 ab 28 41 3d 2c e5 ff 3c c3 06 17 be d8 37 38 3d
       0.047157925 0.031237207 -0.14748673 0.04497513
000040 fb f6 93 bb 61 00 8b bd fc 03 d6 bd 87 f6 7e bd
       -0.0045155264 -0.06787182 -0.10449979 -0.062246826
000050 ae 9d 91 bc 9b d7 f7 3d 92 08 2c bd 1c 47 07 3c
       -0.017775383 0.1210167 -0.04200036 0.0082567
000060 f6 77 fa 3c a0 b7 76 bc 92 11 b9 bc e4 e4 6e ba
       0.03057478 -0.015058428 -0.022591386 -0.0009113087
000070 e6 10 8c 3d 2f 88 5a 3c 24 90 a1 3d 68 cc 38 be
       0.068391606 0.013338133 0.07888821 -0.18046725
000080 e6 4f d4 3c 3a 5c a9 bd 9e a9 0b be 1b 26 b8 b9
       0.025917005 -0.08269544 -0.13638923 -0.00035123606
000090 8c b4 93 3d 94 7e 3e 3e e8 78 58 3b c5 40 75 bc
       0.07212171 0.18602973 0.003303105 -0.014969056
0000a0 5b 82 8d bd eb 6c a2 3d 9d 1c 48 3c 84 5b 35 bd
       -0.06909629 0.07930931 0.012213853 -0.04427673
0000b0 85 33 f1 bd 3b dd 0c be b4 db 9b bc 46 15 d6 3d
       -0.11777405 -0.13756268 -0.019025661 0.10453276
0000c0 ea 68 53 bd e6 ed 7c 3c b5 cb cb bd 85 32 75 bd
       -0.051613726 0.015437579 -0.099509634 -0.059862632
0000d0 9e f5 0f bc 8d ba c8 bc fa 28 64 3d 35 9a 8e 3c
       -0.008786587 -0.024503017 0.05570314 0.017407516
0000e0 d7 00 09 be 0d 7f d6 bd 82 be 21 3e 93 2e c7 bb
       -0.13379227 -0.10473452 0.15795329 -0.00607855
0000f0 59 2b 7b bd 7f eb a9 ba 40 2d cc 3d 4d 6f d0 3c
       -0.061320636 -0.001296386 0.09969568 0.025443697
000100 28 3f 54 be 41 cf 6b bc b9 80 fa 3c 5a f1 54 bd
       -0.20727217 -0.014392675 0.030578958 -0.051987983
000110 3b 81 da 3c 70 07 a7 bd 39 da 1f bd cd 52 8a 3d
       0.02667295 -0.081557155 -0.039026473 0.06754074
000120 5f ee 8a 3d 2c 4f 7c 3d f7 0d 1a bd 44 35 ff bd
       0.06783747 0.06159894 -0.037610974 -0.124613315
000130 f0 9b ac 3d 01 34 ad bc 8c d6 33 3d 93 4c ca bd
       0.0842818 -0.021142961 0.04390578 -0.098778866
000140 66 dc 3b 3e 32 75 87 bd a0 04 44 3e cc 5d 36 3d
       0.18345794 -0.0661415 0.1914239 0.044523045
000150 87 bc 07 3d 6a 10 0b 3d 6b db 9d 3c 31 1f e2 3d
       0.033138778 0.0339512 0.019269666 0.110411055
000160 d4 4f 12 bd 30 0d 8e 3d 60 90 08 3e 9f a8 a1 bc
       -0.03572066 0.06936109 0.13336325 -0.019733725
000170 ae 03 76 3d 9c 96 23 3e 0e 7d b4 3d cf a1 04 bc
       0.060062103 0.15975422 0.08812915 -0.008095219
000180 a1 cf 76 bd e3 33 65 3b 6c ca 07 3e 9f 1a e5 bc
       -0.060256604 0.0034973554 0.13260812 -0.027966795
000190 3e 30 b8 3d 92 f9 ce 3d 0f 01 2d bd f3 ac 81 3d
       0.089935765 0.101061955 -0.042237338 0.063318156
0001a0 45 a2 3d bd 40 2e 8a 3d a4 ec b3 bc 7f 9c c6 3d
       -0.04629733 0.06747103 -0.021963425 0.09697818
0001b0 d0 79 10 bd a4 7f db 3d c7 fe 11 3d 85 22 80 3c
       -0.03527242 0.10717705 0.035643365 0.01564146
0001c0 ae 29 a5 3c ea 42 b0 bd a7 39 b3 bc d9 8a b8 3d
       0.020161476 -0.08606513 -0.021878077 0.09010858
0001d0 e3 0c 4a be fd 28 15 bd dd e8 8f 3d 97 98 73 bd
       -0.19731478 -0.036416043 0.07026837 -0.059471693
0001e0 11 91 86 bc 85 9d 0d 3d 52 b2 86 bd ae 10 fd bd
       -0.016426595 0.03457405 -0.06576981 -0.12356697
0001f0 bf b5 02 bd d8 25 ee bd 11 a7 cb bd e7 ca 68 bd
       -0.031911608 -0.11628312 -0.09943975 -0.056834128
000200 68 96 86 bd 42 fc 9d 3c 65 2e d5 bd 33 7e 84 bd
       -0.065716565 0.019285325 -0.1040924 -0.06469383
000210 18 0f 46 3d 00 13 12 bc 66 8a 6c 3a 9d ee aa bd
       0.04835424 -0.008915663 0.00090233085 -0.08346293
000220 41 9c 71 bc b4 9e 4e 3d ec 5f 05 3c 1b 33 0a bc
       -0.0147467265 0.05044432 0.008140545 -0.008435036
000230 92 8a b2 bd 0d 74 91 bd d4 5e 27 3d 00 5d bd bd
       -0.087178364 -0.07102213 0.04086192 -0.09246254
000240 84 a9 e3 bc e3 b2 3c 3d 59 b3 40 bb df e1 d3 bb
       -0.027790792 0.046069037 -0.0029403775 -0.006466135
000250 b8 99 a4 3c 09 0d 05 be 7b 9d da 3c 3f ac fb bb
       0.02009283 -0.12993254 0.02668642 -0.0076804454
000260 1b b5 38 3d f6 b2 a7 3c cf fd d7 bd 8c db a6 bd
       0.04509459 0.020471077 -0.10546457 -0.08147344
000270 0e 8a 8e 3e 1c e3 44 3c 27 d3 c2 3d 9f 15 04 bc
       0.27839702 0.012017038 0.0951293 -0.0080617955
000280 3f 6e 7f 3d 62 4b f0 bb 1d e8 9e 3c 12 e9 78 be
       0.062361 -0.007333205 0.01939779 -0.2430766
000290 f7 36 52 bd 00 99 9a bc e2 fc c6 bc e5 4b c2 bd
       -0.05132195 -0.018871784 -0.024290506 -0.09487132
0002a0 b9 48 50 3b 9c c4 38 bd 49 d7 36 bc 2f d2 05 3e
       0.0031781627 -0.045109376 -0.011159726 0.1306846
0002b0 ad bd 47 3e cb 2b 9e bd 4f 73 44 bc 21 ca 81 3c
       0.1950595 -0.077231966 -0.011990382 0.015843453
0002c0 20 c5 65 bd bb f4 b8 bc 0c 40 92 3c c5 9e 85 bd
       -0.056096196 -0.022577634 0.017852806 -0.065244235
0002d0 bb 5f 99 bc 4f fe 02 bc fe 60 cb bd cb 45 55 3d
       -0.018722406 -0.007995202 -0.09930609 0.052068513
0002e0 4b b8 7c bd 04 f0 14 bd bd 7d 90 3e 29 34 16 bd
       -0.061699193 -0.03636171 0.2822093 -0.036670838
0002f0 29 53 ab 3c 65 68 30 3d 11 3f 17 bd 23 8f 16 3b
       0.020913677 0.04306831 -0.03692538 0.00229735
000300 c5 5e e1 3d 8e 9b 84 3d a0 08 c6 3b 43 2e c6 3d
       0.11004404 0.06474982 0.0060435086 0.096767925
000310 19 fc 3d 3c ae 42 e8 bd a2 c0 96 bb 26 8c 37 bd
       0.011595749 -0.11340843 -0.0046006003 -0.04481139
000320 f9 a2 f2 bc 5f a5 fa bc c8 be d3 bd c6 9e 00 bd
       -0.029618727 -0.030596433 -0.10339123 -0.03140142
000330 f4 3c 11 be 81 42 bd 3c 41 9e 8b 3b c7 0b 71 bd
       -0.14183408 0.023103 0.0042608087 -0.058849122
000340 fc 08 07 be 44 09 ba 3d cd 6d e2 bb f3 ab 58 bd
       -0.13187021 0.090837985 -0.006910062 -0.05289836
000350 21 5a 76 3c 4c 6a 15 be 01 6b 7e 3d 69 3a 96 3d
       0.015036137 -0.1459133 0.062113766 0.073353596
000360 91 89 65 bd 85 c0 9f bd e1 8d a6 3d 2a 5f c6 3d
       -0.056039397 -0.07800392 0.0813253 0.0968612
000370 dd c6 2d 3c 30 47 cc bd de dd 20 3d 88 9b 7d bc
       0.010606495 -0.099745154 0.03927409 -0.015478976
000380 3b b3 80 bd 5f 0b e3 bd cf 3f 25 bd 86 04 10 bd
       -0.062841855 -0.11086153 -0.040344056 -0.035160564
000390 20 9a 74 3c 7f 44 e4 bd c3 f0 ca bd 35 e7 a5 bd
       0.014929324 -0.11145877 -0.09909203 -0.0810074
0003a0 cb 5b 15 3d 85 f2 74 bd 64 64 6e 3d f4 f8 0f 3c
       0.036464494 -0.059801597 0.05820121 0.008787382
0003b0 22 21 c9 3d 4b e8 b2 bd 97 f0 ea 3d 8c 25 b7 bc
       0.09820773 -0.087357126 0.1147167 -0.022356771
0003c0 3a 22 db bd 59 52 22 3d 73 f4 f3 3b ae 60 04 bd
       -0.106998876 0.039629314 0.007444912 -0.032318763
0003d0 a0 f1 35 bd ee 3c 16 bd de 19 6e 3d cb ff 81 3c
       -0.044419885 -0.0366792 0.058130138 0.015869042
0003e0 d0 37 9e 3d 90 af 73 3d 99 26 b2 bd 4d d9 cf bd
       0.07725489 0.0594936 -0.08698768 -0.10148869
0003f0 7d d5 cb 3d 29 c3 c2 3b d5 55 36 3e 69 70 20 bd
       0.09952829 0.005943675 0.1780618 -0.039169703

fc2.bias f4 [128]
000000 22 13 4b be 32 b0 8a be 65 6c 5e be 1f ad dd be
       -0.19831517 -0.2708755 -0.21721037 -0.43296143
000010 a3 4a 01 bf 6a 42 81 be 35 29 6d bc 39 60 51 bd
       -0.5050451 -0.25245982 -0.014475157 -0.051117156
000020 88 a8 62 be 28 7a ef bd 6c be ed bd 1c dc c3 bc
       -0.22134602 -0.11693221 -0.11608586 -0.023908667
000030 87 82 13 be 5f 42 99 bd 09 d2 8a be 9e 16 1d 3d
       -0.14405261 -0.074833624 -0.2711337 0.038351648
000040 61 68 c0 3d f0 0a 1d bf be b1 e4 3c d9 e3 f9 be
       0.09394909 -0.61344814 0.027916785 -0.48806646
000050 2e 58 8e be 55 48 2c be 9c 0d 74 bf 95 b9 2f be
       -0.2780165 -0.16824467 -0.95333266 -0.17160638
000060 5c bd 73 be a2 74 9a be 44 4c 6c 3e ac e0 b0 be
       -0.23802704 -0.3016711 0.23075968 -0.3454641
000070 c1 fa 10 3e 1a c7 40 3d 48 fb 0f bd fb c7 d7 be
       0.14158155 0.047064878 -0.03515175 -0.4214476
000080 f7 11 81 bc d0 8b 26 bd c8 7b 97 be ce 42 dd bc
       -0.015755637 -0.04066068 -0.29586625 -0.027009394
000090 29 db 35 3e 6b d5 a1 be 64 ba 87 be 8f e9 a9 be
       0.17759384 -0.31608137 -0.26509392 -0.33186004
0000a0 53 e2 dd be 27 ce 6b be 39 2b d1 be ff 63 a4 be
       -0.43336734 -0.2302786 -0.4085329 -0.3210754
0000b0 c7 b1 e6 bd 75 08 7c be da 70 bc be ee d0 e4 bb
       -0.11264377 -0.24612601 -0.3680485 -0.006982914
0000c0 69 44 26 be b3 b4 cf be f6 df 43 be 33 ab f5 be
       -0.16237034 -0.4056755 -0.19128403 -0.47982177
0000d0 5e 8b 77 be f9 c7 9d 3b c8 80 4f be 21 56 a6 be
       -0.24174258 0.0048150984 -0.2026397 -0.32487586
0000e0 62 7b 22 be 28 75 4f 3e 39 30 6f be 87 45 dc be
       -0.1586738 0.20259535 -0.23358239 -0.43021795
0000f0 22 54 a1 bc 7a a9 0c be 74 e8 03 bf eb 77 c7 bd
       -0.019693438 -0.13736525 -0.5152657 -0.097396694
000100 e3 1c 43 be ca 8e 89 bd 6a ed 04 bf 68 57 c4 bd
       -0.19053988 -0.06716688 -0.51924765 -0.09586984
000110 b5 88 a8 be 6e f8 f9 be 0b ec e1 3d fd 45 00 3f
       -0.329168 -0.4882235 0.1103135 0.50106794
000120 a0 90 89 bd 87 df 1d 3d bb 4a ab 3c 6a 5f 10 bf
       -0.06717038 0.03854325 0.020909658 -0.5639559
000130 bc 3e cc be 5f 6f 8a be 3f 9f 4a be 7b 9c c7 be
       -0.39891613 -0.27038094 -0.1978731 -0.38986573
000140 8d 2b f0 be 2d 0f 6d be 45 65 08 bd a2 c8 50 be
       -0.46908227 -0.2315032 -0.033299703 -0.20389035
000150 1b bf da be 0f aa 5c be 86 f4 15 3d 4f 31 ae be
       -0.42723927 -0.21549247 0.03661015 -0.34021994
000160 93 bd d6 3c 3e f5 35 be d7 ec 1e be a7 94 5e bc
       0.026213443 -0.17769334 -0.15520035 -0.013585246
000170 12 0d dd bd c5 f0 c8 3c 1b 08 0a be 59 54 05 bf
       -0.107935086 0.02452887 -0.13479654 -0.5208183
000180 cd cb bb be 70 4e 80 bd 93 87 e0 bd 74 14 01 be
       -0.36678925 -0.06264961 -0.10963359 -0.12605458
000190 f6 c2 3d be a7 7d de 3e e8 67 91 be 1e eb a1 be
       -0.18531403 0.4345524 -0.28399587 -0.31624693
0001a0 81 e4 20 be be b7 b0 be 7d 55 96 3d ba 49 90 3c
       -0.15712167 -0.34515184 0.07340524 0.01761328
0001b0 d2 e0 28 be d2 81 41 be 70 ec 88 bf d8 2b 7d bd
       -0.16492012 -0.18897179 -1.0697155 -0.06180939
0001c0 e4 75 bd 3d c6 b3 fe be f0 99 98 3d 01 6a a3 bd
       0.092510015 -0.4974653 0.07451236 -0.07979203
0001d0 8e 25 fd bd 9a a7 6e be 8a d3 6b be 0e c5 82 bd
       -0.123606786 -0.23306122 -0.23029914 -0.063852414
0001e0 e4 5e 40 3d 6a e9 92 be 1f 69 88 3c 52 dc 84 be
       0.046965495 -0.28693706 0.016651688 -0.2594934
0001f0 5e da d1 bd c3 03 d4 bd d0 68 9a be e0 32 25 be
       -0.10246728 -0.1035228 -0.3015809 -0.16132689

fc3.weight f4 [1, 128]
000000 60 2b 57 b9 fb 8b 3b 3c 3b 27 92 3d 2c 79 55 3c
       -0.00020520156 0.011446948 0.07136389 0.013029378
000010 fb 38 b9 bc be 4d ea 3b 1c 3b d8 3c 97 84 f3 3c
       -0.022610178 0.007150381 0.026395373 0.02972631
000020 f7 a2 e6 3b a7 b7 bc bc b1 b8 c2 3c 93 cf 6a bc
       0.00703847 -0.023036791 0.023769708 -0.014331716
000030 18 1f 19 bd 6b 68 41 3c 85 9f 8c bc cf e4 3c bc
       -0.03738317 0.01180468 -0.017165909 -0.011529162
000040 c8 0b 95 bc 52 dd e1 bc 3e 5a 3f 3c 97 f5 bd 3c
       -0.018194094 -0.027571354 0.01167923 0.023188395
000050 0f 57 88 3b b3 53 09 3d 91 58 9d bc 14 e0 0d bd
       0.004160769 0.033527087 -0.01920727 -0.034637526
000060 25 84 d2 3c 9e 8b 07 bd e3 c8 2a bd 28 dc 33 bd
       0.025697777 -0.033092134 -0.041695487 -0.04391113
000070 20 19 1e bd c7 a1 e9 bc 73 7e 06 3c 1b 69 b2 3c
       -0.03859818 -0.028519524 0.008208859 0.021778634
000080 cb c2 08 bd 48 c4 8e bd 00 19 09 bd 47 06 84 3c
       -0.033388894 -0.069710314 -0.033471107 0.016116275
000090 92 9a a7 bc 2f ae 07 3b e7 9d 7a 3d 6f d8 de 3b
       -0.020459447 0.0020703187 0.061185744 0.0068007032
0000a0 fd a1 77 bd a9 14 87 3c 6d 9d e6 3c 46 d1 e0 bc
       -0.06045722 0.016489344 0.028151238 -0.02744354
0000b0 21 33 ff 3c 3a fc 97 3b f5 65 ea bc 97 a0 67 3c
       0.03115231 0.004638222 -0.02861307 0.014137409
0000c0 03 8d 5a 3c fb a4 58 3c 6c bf 4f 3c da f5 f1 bc
       0.013339284 0.013222928 0.012679916 -0.029536176
0000d0 1f 0d ae 3c 74 76 e1 bc be 35 51 3d 87 9d 60 3c
       0.021246491 -0.027522303 0.051076643 0.013709432
0000e0 88 af 9a 3c cf c3 33 3c 5d bf 86 bd c1 46 94 bc
       0.018882528 0.010971977 -0.065794684 -0.018100144
0000f0 47 64 aa 3c f0 79 3b 3c df 0b 3b bc be 6b da bc
       0.02079977 0.011442646 -0.0114164045 -0.026662704
000100 20 4d a3 bc 05 72 e9 3c a6 a9 62 bc 4a c1 c4 3c
       -0.019934237 0.028496752 -0.013834393 0.024017949
000110 f7 b2 24 3c 23 3b 3c bd ec 30 a1 3c 71 13 19 bd
       0.010052434 -0.045954835 0.019676648 -0.037372056
000120 f4 8b 74 3c 93 ca 8c 3c 07 89 fd 3c 10 09 a1 bc
       0.014925946 0.017186439 0.030949129 -0.019657642
000130 6b 4d 66 bd 34 ec 60 3c 5b a4 a0 3c 46 4b 2b 3d
       -0.056226175 0.01372819 0.01960962 0.041819833
000140 ed 16 a4 bc f7 c8 1d 3c ed 1a 0b bd 52 31 d3 3b
       -0.020030463 0.009630433 -0.033961225 0.0064450884
000150 61 48 88 bc 64 87 23 3d ca 11 11 3c 74 94 7d bc
       -0.016636075 0.03992404 0.008854339 -0.0154772885
000160 da ef 04 bc 57 ff d8 bc 7a 22 a4 bc 0d 98 ac bc
       -0.008113826 -0.026488943 -0.020035971 -0.021068597
000170 63 95 01 bd 87 64 1d 3c 88 43 02 3c 01 af 1b bd
       -0.031636607 0.009606487 0.007950671 -0.038008694
000180 f2 70 eb 3d 01 7d b1 3c 77 23 2d bd d5 58 98 bc
       0.11496152 0.021666052 -0.04227015 -0.018597046
000190 d4 96 b1 3c 33 b8 25 bd 1c 59 09 bd 36 14 78 bd
       0.021678366 -0.04045887 -0.033532247 -0.06056615
0001a0 3a ec ca bc ce cb 8c ba 9b 3b cb bc a2 9c c5 3b
       -0.024770845 -0.0010741891 -0.024808696 0.006030635
0001b0 f5 ba 73 3c fa 7d 72 3c 08 82 0f bd 36 46 82 bd
       0.014876117 0.014800543 -0.035036117 -0.06361048
0001c0 fa d6 89 bc 81 43 2e bc 27 4c 05 3c 7d e5 0c bd
       -0.016826142 -0.010636211 0.008135832 -0.034398545
0001d0 56 1e 02 bc a5 7f 2a 3d f2 3d fd 3c 07 d6 05 3d
       -0.007941803 0.041625638 0.030913327 0.032674816
0001e0 07 d1 43 3c a6 2f ea 3b 9d ab 81 bc fa a8 70 bc
       0.0119516915 0.0071467934 -0.015828902 -0.014688725
0001f0 80 dd 9e bc 72 3c 19 3d 94 09 41 bd 08 e8 af 3c
       -0.019392729 0.03741116 -0.047128275 0.021472946
